Crit-Autosave.pt (torch, 490931 bytes, 37 tensors)

E.0.bias f4 [40]
0	0x3e7b518b	0.24542825
1	0xbec3bef9	-0.38231638
2	0xbca6e329	-0.02037199
3	0x3e85ccb2	0.26132733
4	0x3c95acde	0.018270906
5	0x3eb142d9	0.34621313
6	0x3c714734	0.014726449
7	0xbabdaddc	-0.001447137
8	0x3e8e88c2	0.27838713
9	0x3bb8a101	0.0056344275
10	0x3d680523	0.056645524
11	0x3c34a84c	0.011026453
12	0x3d1f916f	0.038957056
13	0x3bf5e240	0.0075037777
14	0xb8c91ae6	-9.589437e-05
15	0x3cf64abd	0.030064935
16	0x3c491c76	0.012274852
17	0x3d2669e6	0.040628336
18	0x3ad8e5c8	0.0016547972
19	0x3c91fa5a	0.017819572
20	0xbe42ffe7	-0.19042931
21	0x3c2a2c65	0.010386561
22	0x3ba66146	0.005077514
23	0xba81b5bd	-0.0009896081
24	0xbaad96f0	-0.0013243835
25	0x3a294190	0.0006456608
26	0x3e882dbf	0.26597401
27	0x3a63de73	0.00086925103
28	0x3948ced7	0.0001915054
29	0xbe7b219c	-0.2452454
30	0x3b596128	0.0033169482
31	0xb9fd7cf5	-0.0004834902
32	0x3d2bc799	0.041938398
33	0x3bec8dbb	0.007219044
34	0x3b8cde30	0.0042989478
35	0xba331496	-0.00068313756
36	0x3b3fe3d8	0.0029280093
37	0x3abf9e11	0.0014619251
38	0xbb84f62f	-0.0040576677
39	0x3a0be40b	0.000533641

E.0.weight_orig f4 [40, 3, 3, 3]
0	0xbc32a46c	-0.010903459
1	0x3d6377b5	0.055534083
2	0xbb200ff5	-0.0024423574
3	0x3d0b8ebc	0.03407167
4	0x3df7299b	0.120684825
5	0x3d997c93	0.07494464
6	0xbe24df81	-0.16100885
7	0xbde0c669	-0.10975344
8	0xbdf86289	-0.12128169
9	0xbd56a04e	-0.052398972
10	0xbe3d8a6d	-0.18509836
11	0xbd960315	-0.073248066
12	0x3dff7982	0.12474348
13	0x3cbfc5ed	0.023409808
14	0x3d8e973d	0.0696244
15	0x3b888103	0.00416577
16	0x3d8592bd	0.06522129
17	0xbe0eb083	-0.13934521
18	0xbd9e3aba	-0.07726045
19	0x3e0e15e0	0.13875532
20	0x3e21c195	0.15796502
21	0xbdcdc05f	-0.100464575
22	0x3cc6d984	0.024273641
23	0x3dd242d8	0.10266656
24	0xbe1952e4	-0.14973027
25	0x3da762d9	0.081731506
26	0x3e0c464b	0.1369869
27	0x3e1c0449	0.1523601
28	0xbdab52e8	-0.083654225
29	0x3d0a7182	0.033799656
30	0x3d4f14d9	0.05055699
31	0xbda2d377	-0.0795049
32	0x3da1bbae	0.07897125
33	0xbd3301be	-0.043702833
34	0x3e23e56c	0.16005486
35	0xbdeb12cc	-0.114781946
36	0x3d206631	0.039159957
37	0x3cc74978	0.024327025
38	0x39f2b2d7	0.00046291083
39	0x3e3349ce	0.17508623
40	0x3d9cee15	0.07662598
41	0x3e2c4be2	0.16825822
42	0xbd985aeb	-0.07439216
43	0xbbbc0714	-0.0057381485
44	0x3ccf3607	0.025294317
45	0x3d2b7d20	0.041867375
46	0xbdd26098	-0.1027233
47	0x3d641cbf	0.055691477
48	0xbcd064b7	-0.02543865
49	0x3c738b5a	0.014864767
50	0x3d44174c	0.04787378
51	0x3e54774d	0.20748635
52	0x3d3a17bb	0.045432787
53	0x3d24f77e	0.04027509
54	0xbe253208	-0.16132367
55	0xbdda2ad5	-0.10652701
56	0xbe0bde64	-0.13659054
57	0xbdc22caa	-0.09481175
58	0xbe60211e	-0.21887633
59	0xbe31c899	-0.17361678
60	0x3b6cd209	0.0036135933
61	0xbd9503be	-0.072761044
62	0xbe37d351	-0.17951705
63	0x3dce5e7a	0.10076614
64	0x3e02147e	0.1270313
65	0x3cb1c922	0.021702353
66	0x3dfbb717	0.12290781
67	0x3e5dc11a	0.21655694
68	0x3e05db20	0.13071871
69	0x3e4578ef	0.19284414
70	0x3d17d3ad	0.037067104
71	0x3e0c721b	0.13715403
72	0xbcbafd6e	-0.022825923
73	0xbb9f4b18	-0.004861247
74	0x3e115400	0.141922
75	0xbcadb5ee	-0.021204915
76	0xbccba9b6	-0.024861198
77	0x3d830e5c	0.06399223
78	0xbc10e85d	-0.008844462
79	0xbd1ebeee	-0.038756303
80	0xbdb3be5e	-0.08776544
81	0xbc17d95b	-0.00926813
82	0xbd01ab7e	-0.03165769
83	0xbe2de886	-0.16983232
84	0xbd93da63	-0.07219388
85	0xbe310aaf	-0.17289232
86	0xbe31cc93	-0.17363195
87	0x3dd881aa	0.105716065
88	0x3dfacddb	0.12246295
89	0x3dd00121	0.10156465
90	0xbd56a4d0	-0.05240327
91	0x3dcc9e3d	0.09991119
92	0x3e4209c9	0.18949045
93	0x3c9d078c	0.019168638
94	0xbdcb1731	-0.09916533
95	0x3d0b703c	0.034042582
96	0xbc75f38c	-0.015011679
97	0x3cdfc095	0.02731351
98	0x3d9c9ed0	0.076474786
99	0xbc0927e3	-0.008371326
100	0xbc00736e	-0.007840021
101	0x3e05f123	0.13080268
102	0xbde3108f	-0.11087143
103	0x3be1e0ae	0.006893239
104	0x3d93a07c	0.07208344
105	0xbdc2b42c	-0.09507021
106	0xbe0bcfda	-0.13653508
107	0x3c923c9c	0.017851166
108	0xbdff79e6	-0.12474422
109	0xbd86f44c	-0.06589565
110	0x3df4c329	0.11951286
111	0xbde9e8f8	-0.114213884
112	0x3db6ba5e	0.089222655
113	0x3d8e14e4	0.06937578
114	0x3d8b41ac	0.06799635
115	0x3ca98784	0.020694502
116	0x3c3e4a7d	0.011614439
117	0xbdb122ae	-0.08649193
118	0xbe11a68b	-0.14223687
119	0x3d382b99	0.044963453
120	0xbdc1c1ac	-0.09460768
121	0x3c73ca2b	0.014879744
122	0x3e4912c3	0.19636063
123	0xbdb4360b	-0.087993704
124	0xbd0c6411	-0.03427512
125	0x3e012719	0.12612571
126	0xbe8baa1c	-0.2727822
127	0xbdee474d	-0.11634693
128	0x3e1f9bc0	0.15586758
129	0xbe426452	-0.18983582
130	0xbca777e2	-0.020442907
131	0x3e7c4258	0.24634683
132	0x3dbf4a2f	0.09340321
133	0x3d97f5d6	0.07419936
134	0x3c2a4b2a	0.010393897
135	0xbe0ee094	-0.13952857
136	0x3d965983	0.07341292
137	0xbddece2f	-0.1087917
138	0xbd26b213	-0.04069717
139	0xbe37ca4d	-0.17948265
140	0xba74d504	-0.0009339603
141	0x3c96f26e	0.018426146
142	0xbde8a9bd	-0.113605
143	0xbe284430	-0.16432261
144	0x3dbe675b	0.09297057
145	0xbd8cf5f3	-0.068828486
146	0xbd909dd9	-0.07061357
147	0x3e22a866	0.15884551
148	0xbbacf401	-0.005278111
149	0x3e171e64	0.14757687
150	0x3e0f0e08	0.13970196
151	0xbdf0c155	-0.11755625
152	0xbde17883	-0.11009314
153	0x3cb9b00f	0.02266696
154	0x3e23f60b	0.16011827
155	0xbdd1df61	-0.10247684
156	0x3c765825	0.015035664
157	0xbe018e70	-0.12651992
158	0x3c8414c5	0.016123185
159	0x3e362a87	0.1778966
160	0x3a262137	0.0006337347
161	0xbb8b21c5	-0.004245969
162	0x3dd3470c	0.103162855
163	0x3d2423c0	0.040073156
164	0xbbda6c4f	-0.0066657434
165	0xbd4f6658	-0.050634712
166	0xbc914f11	-0.017737897
167	0xbe327388	-0.17426884
168	0x3e15275a	0.14565793
169	0x3de773e9	0.11301405
170	0xbe3d4b9a	-0.18485871
171	0x3d20d90c	0.039269492
172	0x3dd5a0dd	0.10431073
173	0xbdac0cdf	-0.084008925
174	0x3e1b3c6c	0.15159768
175	0xbd073097	-0.033005323
176	0x3dc09a85	0.09404472
177	0xbdfd65f2	-0.1237296
178	0x3d82a1ea	0.06378539
179	0xbe26a68d	-0.16274472
180	0xbe1117d4	-0.14169246
181	0x3c4af8f4	0.012388457
182	0x3d2e2974	0.04252
183	0xbd905757	-0.07047909
184	0x3e3a8db1	0.18218113
185	0x3e63e667	0.2225586
186	0xbc2fb4eb	-0.010724287
187	0xbc55970c	-0.013036501
188	0x3e4e4aa5	0.20145662
189	0x3ec4d3d9	0.38442877
190	0x3e3db4c6	0.18525991
191	0xbd9467a0	-0.072463274
192	0x3db61220	0.08890176
193	0x3d13fd3d	0.03613018
194	0xbd41fba4	-0.047359124
195	0xbd2a7480	-0.04161501
196	0xbdcdb4e4	-0.10044268
197	0xbd6294c1	-0.055317644
198	0x3e26948f	0.16267608
199	0xbd84c886	-0.06483559
200	0xbc05fc10	-0.008177772
201	0xbdbdd552	-0.09269203
202	0x3d921852	0.07133545
203	0xbc801c56	-0.015638512
204	0xbd8df427	-0.06931334
205	0x3d097826	0.033561848
206	0xbd92c8c0	-0.07167196
207	0x3acb468b	0.0015508694
208	0xbd8bc81f	-0.068252794
209	0xbd3d0349	-0.04614571
210	0xbd5d2953	-0.053994488
211	0xbbf332fb	-0.007421849
212	0x3d8c2396	0.06842725
213	0x3d378abd	0.044810046
214	0x3d1c3456	0.03813585
215	0xbc32f57e	-0.010922788
216	0x3e0715e1	0.1319194
217	0xbddbff8a	-0.107420996
218	0x3e450b1e	0.19242522
219	0xbe225704	-0.15853506
220	0x3d18bb07	0.03728774
221	0x3e23e441	0.1600504
222	0x3d203896	0.039116465
223	0xbd895d28	-0.06707221
224	0x3cf4e08a	0.029892225
225	0xbe259dc4	-0.16173464
226	0xbd562970	-0.05228561
227	0xbe0b0479	-0.13575925
228	0x3d8546fa	0.06507678
229	0x3db14f91	0.08657754
230	0x3c580e9b	0.013187076
231	0xbc6c9574	-0.014439929
232	0x3ceea576	0.029131632
233	0x3de6509d	0.112458445
234	0xbe0eacc3	-0.13933091
235	0x3c3bfd08	0.011473902
236	0xbe5d726e	-0.21625683
237	0x3d437176	0.047715627
238	0x3e1ddfd6	0.15417418
239	0xbdf069aa	-0.11738904
240	0x3e14c096	0.1452659
241	0xbe03dd72	-0.12877443
242	0xbd94dfb7	-0.07269233
243	0x3c9a9190	0.018868238
244	0x3e118981	0.1421261
245	0x3c117b68	0.00887952
246	0x3dbd94c7	0.09256893
247	0x3d9cf496	0.076638386
248	0xbce61c5f	-0.0280897
249	0xbdad1f36	-0.08453219
250	0x3e066c0d	0.13127156
251	0x3e0ac21e	0.13550612
252	0x3e0e2f0c	0.13885134
253	0x3d9e95c9	0.07743413
254	0x3df9f87a	0.12205596
255	0x3dd53c27	0.10411864

E.0.weight_u f4 [40]
0	0xbc280101	-0.010254146
1	0x3cb1dce8	0.021711782
2	0xbe89c245	-0.26906028
3	0xbe2faaf0	-0.17155051
4	0xbe293d1e	-0.1652722
5	0xbda84030	-0.08215368
6	0x3dbcf829	0.0922702
7	0x3e879390	0.2647977
8	0x3d699018	0.057022184
9	0x3e127ed1	0.14306189
10	0x3e428b2f	0.18998407
11	0xbcda1e5e	-0.026625808
12	0x3e65c709	0.22439207
13	0x3de04d80	0.10952282
14	0x3e26a87e	0.16275212
15	0x3dca9e9d	0.09893534
16	0xbe3f84ed	-0.18703051
17	0xbdb87481	-0.09006596
18	0x3dfe93c1	0.124305256
19	0x3d2da4dc	0.04239355
20	0xbd8cf7c5	-0.06883196
21	0x3e9fe9d8	0.31233096
22	0x3ebbfdbf	0.3671703
23	0x3dc89ee4	0.09795931
24	0xbdadc35f	-0.0848453
25	0xbdad044f	-0.084480874
26	0x3e57599f	0.21030281
27	0x3e2260ca	0.15857235
28	0xbeafe24a	-0.34352332
29	0xbdc1f604	-0.09470752
30	0xbd8764fc	-0.06611058
31	0x3dad6020	0.084656
32	0xbe26728b	-0.16254632
33	0xbcbb6b3f	-0.022878287
34	0x3c7713a1	0.0150803635
35	0x3e174cef	0.14775442
36	0xbd1d04a0	-0.03833449
37	0xbe2efdad	-0.17088957
38	0xbde4a306	-0.11163907
39	0xbd8730c3	-0.066010974

E.0.weight_v f4 [27]
0	0x3ed23912	0.41059166
1	0x3e91d72a	0.2848447
2	0x3d801c8e	0.062554464
3	0x3d4433b3	0.047900867
4	0x3e99963a	0.29997426
5	0x3d70966c	0.058737203
6	0x3e007cf1	0.12547661
7	0x3e914bec	0.28378236
8	0xbe64d15b	-0.22345488
9	0x3c0fec41	0.008784355
10	0x3c89341e	0.016748484
11	0xbd554122	-0.05206407
12	0xbe5f9fac	-0.21838254
13	0x3de6c01b	0.1126711
14	0xbe6514a7	-0.2237116
15	0xbd8c8b24	-0.068624765
16	0x3b68d3a9	0.003552655
17	0xbeec907f	-0.46203992
18	0x3cbd997b	0.023144474
19	0x3e124f1b	0.14287989
20	0x3c20ff30	0.009826466
21	0x3d903a8e	0.070424184
22	0x3e018d50	0.12651563
23	0xbdf34423	-0.118782304
24	0x3e2f18db	0.17099325
25	0xbc1b6e40	-0.009486735
26	0xbe974134	-0.29541934

E.2.bias f4 [40]
0	0xbd4ec3b3	-0.050479602
1	0xbd599e1c	-0.0531293
2	0xbcf4067d	-0.02978825
3	0xbcf57f97	-0.029968066
4	0x3dee7b29	0.11644585
5	0x3d3be99b	0.04587708
6	0x3e2ba597	0.16762386
7	0xbb60f868	-0.003432775
8	0x3d8c86ca	0.068616465
9	0xbddac9a0	-0.10682988
10	0x3d6c716d	0.05772536
11	0x3dcad7f8	0.09904474
12	0x3c65ba2f	0.01402144
13	0xbc97de15	-0.018538514
14	0x3dcd9d43	0.10039761
15	0x3cb39cf9	0.021925436
16	0x3dd9c509	0.106332846
17	0xbd1fc9c7	-0.03901079
18	0xbc9e1808	-0.019298568
19	0xbb707e12	-0.0036696238
20	0x3c1e8f7c	0.009677764
21	0xbd60100d	-0.054702807
22	0x3c28da96	0.010306021
23	0xbb5baf60	-0.003352128
24	0xbb53fa51	-0.0032345245
25	0xbd30675d	-0.043067325
26	0xbdbd5216	-0.09244172
27	0xbcfd4720	-0.030917704
28	0x3cf794df	0.030222354
29	0xbbef2151	-0.007297673
30	0x3e2de2aa	0.16980997
31	0xbd21299a	-0.039346315
32	0xbd592036	-0.053009234
33	0xbce32bb9	-0.02773081
34	0xbcf999bc	-0.030468814
35	0x3d4a8c2b	0.04945008
36	0xbd1cc790	-0.038276255
37	0xbcdc55a0	-0.026896298
38	0xbe11472e	-0.14187309
39	0xbd2352dc	-0.039873943

E.2.weight_orig f4 [40, 40, 3, 3]
0	0xbd4016e0	-0.046896815
1	0x3b8959ac	0.004191598
2	0xbd546e80	-0.051863194
3	0xbc94d39f	-0.018167315
4	0x3c8286b5	0.015933374
5	0xbc72cc3c	-0.014819201
6	0x3b8ac77c	0.004235206
7	0x3d26f176	0.04075762
8	0x3d9913be	0.07474469
9	0x3aed0de7	0.0018085808
10	0x3c456056	0.012046894
11	0xbc569a8f	-0.013098373
12	0xbb8f7b48	-0.00437871
13	0xbc2b784f	-0.0104656955
14	0x3c17143d	0.009221134
15	0xbb7cfa29	-0.0038601256
16	0x3d000a52	0.031259842
17	0x3cb27b07	0.02178718
18	0x3d22b87e	0.039726727
19	0xbd5bedb3	-0.053693485
20	0xbd0d3f6b	-0.03448431
21	0x3cd3b4d5	0.025843063
22	0xbd2539c7	-0.040338304
23	0xbd431cb3	-0.04763479
24	0x3d3bcd32	0.045849986
25	0x3d6683b1	0.056277934
26	0x3d2c4375	0.04205652
27	0xbd6d25f3	-0.05789752
28	0xbda167e8	-0.07881147
29	0xbdc43d01	-0.09581948
30	0xbc9692ff	-0.01838064
31	0xbd837baa	-0.064200714
32	0xbda730c4	-0.08163598
33	0xbd83e9a9	-0.064410515
34	0xbb9b37b7	-0.0047368663
35	0xbcf66600	-0.030077934
36	0x3d6a7798	0.05724296
37	0xbcc125a2	-0.023577515
38	0xbc03c2aa	-0.008042017
39	0x3daec05a	0.08532782
40	0x3d280ded	0.041028906
41	0x3ccdcca0	0.025121987
42	0x3d002a9f	0.031290647
43	0x3c24fdbd	0.010070262
44	0xbc9658fa	-0.018352974
45	0xbd6b0fae	-0.057388
46	0xbce54c33	-0.027990436
47	0xbd2cdc74	-0.042202428
48	0x3c2ebb33	0.010664749
49	0xbc158d49	-0.009127923
50	0x3bb08567	0.0053869965
51	0x3dab7302	0.083715454
52	0x3daa0ae5	0.08302859
53	0x3d6ae133	0.057343673
54	0x3bbddb63	0.005793975
55	0xbcb603ce	-0.022218611
56	0xbd757c0a	-0.059932746
57	0x3d5a3508	0.05327323
58	0x3d44eff7	0.04808041
59	0x3d6a8b17	0.057261553
60	0x3d87459a	0.06605072
61	0x3dcfc07d	0.10144136
62	0x3db89f5a	0.09014769
63	0x3d733ae0	0.05938232
64	0x3def60f7	0.116884165
65	0x3df4f7fd	0.119613625
66	0x3d8e4078	0.0694589
67	0x3d88aa9e	0.06673168
68	0x3df67f69	0.1203602
69	0x3c8beff8	0.0170822
70	0x3c9c2f32	0.019065473
71	0x3c1ca6ab	0.009561221
72	0x3db6c836	0.08924906
73	0x3e62f228	0.22162688
74	0x3e304f35	0.17217715
75	0x3db32a63	0.08748319
76	0x3d9c5d9e	0.076350436
77	0x3d9cdd2a	0.07659371
78	0x3ceb19ec	0.028698884
79	0xbd10da7f	-0.035364624
80	0xbbe00217	-0.0068361866
81	0x39306636	0.00016822745
82	0x3d987478	0.0744409
83	0x3cc82af2	0.02443454
84	0x3c3f7ba6	0.011687195
85	0xbc71dccc	-0.014762115
86	0xbcdfabbb	-0.027303567
87	0xbd2d096f	-0.042245325
88	0xbd537905	-0.051629085
89	0xbc50064e	-0.012696816
90	0xbcfb7e3a	-0.030699838
91	0x3bd2b967	0.006430793
92	0x3d0cc342	0.0343659
93	0xbd8d33fd	-0.068946816
94	0xbc5d65f0	-0.013513073
95	0xbd5cf165	-0.05394115
96	0xbd9e9e29	-0.077450104
97	0xbda6e315	-0.08148781
98	0xbda09b98	-0.07842177
99	0xbd928be1	-0.07155586
100	0x3ca84910	0.020542651
101	0x3d7f141a	0.06227503
102	0xbd9118c4	-0.07084802
103	0x3c1abaee	0.009443982
104	0xbd0bc2fa	-0.03412149
105	0x3d8422a8	0.06451923
106	0x3d813dc3	0.06310608
107	0xbc8c62ad	-0.017136896
108	0x3dfd12a1	0.12357069
109	0x3e18279b	0.14858858
110	0x3dfa06e4	0.122083455
111	0x3c32c15d	0.010910359
112	0x3c58e034	0.013237048
113	0x3cbb5495	0.02286748
114	0xbe0625f5	-0.13100417
115	0xbdbe5f16	-0.0929548
116	0xbe26cb36	-0.16288456
117	0xbd50a3ec	-0.050937578
118	0xbd6c97da	-0.057762004
119	0xbce5875b	-0.028018644
120	0x3c8fa6ce	0.017535593
121	0x3d370be3	0.04468907
122	0x3c647bed	0.013945562
123	0x3dc0efb4	0.0942072
124	0x3dbe7d74	0.09301272
125	0x3ddd49e0	0.10805106
126	0x3d30034d	0.042971898
127	0x3c9edee6	0.019393396
128	0x3c5136e5	0.0127694355
129	0xbd795c63	-0.060879122
130	0x3c2a3c00	0.010390282
131	0x3d97180f	0.07377636
132	0xbc6bd4a2	-0.014393957
133	0xbd194ac0	-0.037424803
134	0x3a108943	0.00055136177
135	0xbdc4b998	-0.09605712
136	0xbe05fbe3	-0.13084368
137	0xbdbf7198	-0.09347838
138	0x3b197fb9	0.0023422076
139	0xbd7e0231	-0.06201381
140	0xbcd44d8b	-0.025915882
141	0x3e3bde4e	0.18346521
142	0x3e0ae785	0.1356488
143	0x3dfd6567	0.123728566
144	0x3d3d1506	0.046162628
145	0xbdb9a5d9	-0.09064836
146	0xbd30e758	-0.043189377
147	0x3ddd661c	0.108104914
148	0x3d260343	0.040530454
149	0x3cdb04fb	0.026735773
150	0x3dbd7571	0.09250916
151	0x3dc11742	0.09428264
152	0x3c8762c0	0.01652658
153	0xbe30ef6c	-0.17278832
154	0xbe3d117a	-0.18463698
155	0xbe07d92e	-0.13266441
156	0x3cd37dce	0.025816824
157	0xbce875e3	-0.028376525
158	0xbbcffd86	-0.006347361
159	0x3e4d5030	0.2005012
160	0x3e0f65e9	0.1400372
161	0x3d83cec9	0.064359255
162	0xbda542e9	-0.08069403
163	0xbd6ded71	-0.05808777
164	0xbcbf51fa	-0.02335452
165	0xbcdc80f6	-0.026916962
166	0xbd0efefc	-0.03491114
167	0xbcfb4c28	-0.030675963
168	0xbd39fbec	-0.045406267
169	0x3cf4bdca	0.029875655
170	0x3cc2a4ae	0.023760166
171	0x3c54b619	0.012982869
172	0x3da1abce	0.07894097
173	0x3d963782	0.07334806
174	0x3dd767ee	0.1051787
175	0x3d81cd39	0.06337971
176	0x3da87893	0.08226123
177	0x3da21acb	0.079152666
178	0x3d7739c8	0.06035784
179	0x3cc7a973	0.024372792
180	0xbe054f43	-0.13018517
181	0xbe27691a	-0.16348687
182	0xbddce81d	-0.107864596
183	0x3d1473c7	0.036243226
184	0x3d8cf685	0.06882957
185	0xb9e805b7	-0.00044254746
186	0x3e1c75f2	0.15279368
187	0x3e04c89d	0.12967153
188	0x3d691cc8	0.056912214
189	0xbdf1beaa	-0.118039444
190	0xbcbe6d2e	-0.02324542
191	0x3d2e9496	0.04262217
192	0xbd19e44d	-0.03757124
193	0x3acc95dc	0.0015608626
194	0xbd29090c	-0.041268393
195	0x3d4cf079	0.05003402
196	0xbc25a2d8	-0.010109626
197	0xbbad0a04	-0.005280735
198	0xbd44f264	-0.048082724
199	0xbde9e7ee	-0.1142119
200	0xbd5f0aee	-0.054453783
201	0xbc92b6cc	-0.01790943
202	0xbc4229cd	-0.011850786
203	0xbc2464b7	-0.010033778
204	0xbbe6a35a	-0.007038516
205	0x3d0e9050	0.034805596
206	0x3d4282ac	0.0474879
207	0xbd225fdb	-0.039642196
208	0x3cd080f4	0.025452115
209	0xbd20c422	-0.039249547
210	0x3cd4bc3c	0.025968663
211	0xbd9ac8d6	-0.07557838
212	0xbce577ef	-0.02801129
213	0xbd83bed9	-0.06432886
214	0xbd20a92a	-0.039223827
215	0xbcc0040c	-0.02343943
216	0xbc965e55	-0.018355528
217	0xbcffe0e0	-0.031235158
218	0xbcab7f8b	-0.02093484
219	0xbd5583f2	-0.052127786
220	0xbdbc1ca0	-0.09185147
221	0xbd457dfb	-0.048215847
222	0xbc26b037	-0.010173849
223	0xbd3665ae	-0.044530563
224	0xbd0dad02	-0.03458882
225	0xbcb3f98c	-0.02196958
226	0xbc3a38c6	-0.011366075
227	0x3c0bccb8	0.0085326955
228	0xbd7c8a28	-0.061655194
229	0xbd8e41b3	-0.06946125
230	0x3b194a2a	0.0023390152
231	0xbd9babf4	-0.07601157
232	0xbdcb2373	-0.09918871
233	0xbda1a39f	-0.07892536
234	0x3d41e297	0.047335234
235	0x3d7f54ae	0.062336616
236	0x3d03dd2b	0.032193344
237	0xbd801507	-0.06254011
238	0xbb08765e	-0.0020822505
239	0xbce23af0	-0.027615994
240	0xbd320bb9	-0.04346821
241	0xbd6b8c4c	-0.057506844
242	0xbd3f7cc3	-0.04674984
243	0x3cc426d1	0.02394429
244	0x3e4c59bb	0.19956104
245	0x3df1f11c	0.11813566
246	0x3d98864e	0.074474916
247	0x3e49b55d	0.19698091
248	0x3d302da2	0.04301227
249	0x3c02fd3a	0.007994944
250	0x3e0e9bac	0.13926572
251	0x3d272c0a	0.040813483
252	0xbd7bcc02	-0.061473854
253	0xbcb88c6d	-0.022527898
254	0xbbaa633d	-0.0051998184
255	0xbcff0135	-0.031128505

E.2.weight_u f4 [40]
0	0x3cd3ed73	0.02587006
1	0xbde96693	-0.113965176
2	0x3d91ac01	0.07112885
3	0xbe4bed53	-0.19914751
4	0xbdd59b67	-0.10430031
5	0xbd2c81bb	-0.042115908
6	0x3dd05f00	0.1017437
7	0xbeb7bbc9	-0.35885456
8	0xbcf32771	-0.029681893
9	0x3d9160cd	0.070985414
10	0x3e109155	0.1411794
11	0xbcaa3cfc	-0.020781033
12	0xbdf4af70	-0.119475245
13	0x3dcd27fe	0.100173935
14	0xbdbc0868	-0.09181291
15	0x3e0f7f7e	0.14013478
16	0xbde28059	-0.110596366
17	0xbe432cd0	-0.19060063
18	0xbf289ad7	-0.65861267
19	0xbe2fb4bd	-0.1715879
20	0x3d4a4186	0.049378894
21	0x3dbb5374	0.09146777
22	0xbdc513df	-0.09622931
23	0x3e2bcfb3	0.1677845
24	0xbd24ca9e	-0.040232293
25	0xbd85dff4	-0.06536856
26	0xbddf1407	-0.10892492
27	0x3c1ddd1c	0.009635236
28	0x3c7c1f8c	0.015388381
29	0x3dd31449	0.103066035
30	0x3d1ea877	0.03873488
31	0xbe5f8955	-0.21829732
32	0x3da568b0	0.08076608
33	0x3d70f634	0.058828548
34	0x3e6e82b4	0.23292047
35	0x3d8220f1	0.06353939
36	0x3d1835f4	0.03716083
37	0x3c719610	0.01474525
38	0x3d2df5ab	0.042470615
39	0x3d26aa33	0.04068966

E.2.weight_v f4 [360]
0	0x3d5e3c37	0.054256644
1	0x3ceab932	0.028652761
2	0xbcddbd54	-0.027067818
3	0x3d875c86	0.06609444
4	0x3cea8f42	0.028632764
5	0x3ceca8b8	0.028889045
6	0x3c9ac288	0.018891588
7	0x3d405254	0.046953514
8	0x3c635e5d	0.013877478
9	0xbc59440d	-0.0132608535
10	0x3c9b983e	0.018993493
11	0x3d2245ef	0.039617475
12	0xbd25b176	-0.040452443
13	0xbc8b6d07	-0.017019762
14	0xbbb1895c	-0.005417986
15	0xbd7d4d94	-0.061841562
16	0xbcdd64b5	-0.02702556
17	0x3c2d1e01	0.0105662355
18	0x38d03037	9.9271936e-05
19	0x3c6cfc6e	0.014464481
20	0x3cb29c43	0.021803027
21	0xbc0d98eb	-0.0086424155
22	0x3c32088b	0.010866295
23	0x3ccba906	0.02486087
24	0x3d15cb08	0.03657058
25	0x3b5aae5f	0.0033368093
26	0xbb72cf62	-0.003704988
27	0xbcc4239d	-0.023942763
28	0xbcb4f135	-0.022087673
29	0x3a7c2aab	0.0009619395
30	0xbc1bdb50	-0.009512737
31	0xbca97d3b	-0.020689597
32	0xbcba89a0	-0.022770703
33	0x3acd2737	0.0015651946
34	0x3c58b6ef	0.0132272085
35	0x3cc33051	0.02382675
36	0xbc5e5b4f	-0.013571574
37	0xbdba9be6	-0.091117665
38	0xbd242aed	-0.04008
39	0xbd28e00b	-0.04122929
40	0xbdfcde83	-0.12347128
41	0xbd798740	-0.06092
42	0xbcc702b6	-0.024293285
43	0xbd9eef2d	-0.07760463
44	0xbd989cc4	-0.07451776
45	0xbd84e4a9	-0.06488926
46	0xbc752656	-0.014962753
47	0xbc8d9702	-0.01728392
48	0xbda39c95	-0.0798885
49	0xbcd7dedf	-0.02635139
50	0x3a844137	0.0010090236
51	0xbb2b0d79	-0.002610056
52	0xbd33ce0b	-0.04389767
53	0xbc3a5dc2	-0.011374893
54	0x3cf00b66	0.02930231
55	0x3d1601c1	0.036622766
56	0x3d4c254e	0.049840264
57	0x3d0d22cc	0.034457013
58	0x3d3340fa	0.04376314
59	0x3c86caf5	0.0164542
60	0x3c811b80	0.015760183
61	0x3ca45871	0.020061703
62	0x3b3dadef	0.0028942784
63	0xbd8915a8	-0.06693584
64	0xbd7b0ff6	-0.06129452
65	0xbc9a9a59	-0.018872427
66	0xbd77d036	-0.0605013
67	0xbda92a23	-0.0825999
68	0xbd297287	-0.041368987
69	0xbd7a8254	-0.061159447
70	0xbd59eef0	-0.053206384
71	0xbccb29ce	-0.024800207
72	0xba9b6bc7	-0.0011857682
73	0xbca0e5c1	-0.019640805
74	0xbcbf587b	-0.02335762
75	0xbc9502b4	-0.018189766
76	0xbd0283c4	-0.031863943
77	0xbcfac25e	-0.03061026
78	0xbc60b656	-0.013715347
79	0xbd21ad31	-0.03947181
80	0xbd87f7c9	-0.06639058
81	0xbcc12dbc	-0.023581378
82	0x3c260247	0.010132379
83	0x3c8c8095	0.017151156
84	0xbc89c620	-0.016818106
85	0x3ca90af7	0.020635111
86	0x3d10eef2	0.035384126
87	0xbd6a9608	-0.057271987
88	0xbccf88f3	-0.025333857
89	0xbb987bd6	-0.0046534343
90	0xbcbaf779	-0.022823082
91	0xbc61b4fb	-0.013776059
92	0x3c77f3dd	0.015133825
93	0xbd175c0e	-0.036953025
94	0x3cbbd20b	0.022927305
95	0xbc11462f	-0.008866831
96	0xbca35b5e	-0.019941028
97	0xbcf994d7	-0.03046648
98	0x3b4176ff	0.002952039
99	0xbc7e8746	-0.015535181
100	0xbd89ff71	-0.06738175
101	0xbd355098	-0.044266313
102	0x3dda0446	0.10645346
103	0x3d664876	0.056221448
104	0x3ca6b7b3	0.020351266
105	0x3e0f8e31	0.14019085
106	0x3e3c1e37	0.18370901
107	0x3d8ce63a	0.0687985
108	0x3d8587ea	0.06520064
109	0x3d4d5996	0.050134264
110	0x3d1dd1e4	0.038530245
111	0x3d19e540	0.037572145
112	0x3ccf8080	0.025329828
113	0x3ca374e2	0.019953195
114	0x3d16e123	0.0368358
115	0xbbb3ec10	-0.0054907873
116	0xbd4f76db	-0.05065046
117	0xbc96d28d	-0.018410945
118	0x3d1b56de	0.03792464
119	0x3d0df213	0.034654688
120	0xbc200e6a	-0.009769062
121	0x3cca27aa	0.024677116
122	0x3d20059f	0.03906786
123	0xbd2527ba	-0.04032109
124	0xbcd11c7d	-0.02552628
125	0x3cb312f3	0.021859622
126	0xbdab8694	-0.08375278
127	0xbe18210e	-0.1485636
128	0xbb7259c0	-0.0036979765
129	0xbc80a190	-0.015702039
130	0xbdb797fd	-0.08964536
131	0xbd350cf0	-0.04420179
132	0xbcde72dd	-0.02715438
133	0x3cb48443	0.022035724
134	0xbd393952	-0.04522068
135	0x39db679e	0.00041848136
136	0x3c2b22cf	0.010445311
137	0x3d1cf43d	0.03831886
138	0xbcca85fa	-0.024722088
139	0x3cbbe606	0.022936832
140	0x3c21a593	0.009866136
141	0xbd0663d2	-0.03281004
142	0xbcacdc34	-0.021101095
143	0xbc0dfe4d	-0.008666587
144	0xbcbd56a4	-0.023112603
145	0xbd1f3c81	-0.03887606
146	0xbb8b0222	-0.0042421976
147	0xbbf0b5b3	-0.007345879
148	0xbc9499d5	-0.01813976
149	0xbb46e267	-0.0030347349
150	0xbdad5af8	-0.084646165
151	0xbd841c93	-0.064507626
152	0xbb407277	-0.0029365101
153	0x3af0ace7	0.0018362076
154	0x3c07ecca	0.008296201
155	0x3d5d84f3	0.05408187
156	0x3cfdad0b	0.030966302
157	0xbd38ef5f	-0.045150157
158	0x3d797df6	0.06091114
159	0xbc8ce95f	-0.017201124
160	0xbc8ddbef	-0.017316787
161	0x3c5b27e1	0.013376207
162	0xbb132b50	-0.0022456236
163	0x3cc6b83a	0.024257768
164	0x3d36c0ad	0.044617344
165	0xbb746568	-0.0037291888
166	0x3c86a9fa	0.016438473
167	0x3d4e1d6a	0.05032102
168	0xbcfd6644	-0.030932553
169	0xbd0b0183	-0.03393699
170	0xbbfbd8c0	-0.0076857507
171	0x3cde4b4f	0.02713552
172	0x3cc0ed65	0.023550699
173	0x3cae0aad	0.021245325
174	0xbcaedc68	-0.021345332
175	0x3b44b51c	0.0030015176
176	0x3d0e4f12	0.034743376
177	0xbd2968c3	-0.041359674
178	0xbc914c6c	-0.017736636
179	0xbc8cd25b	-0.017190149
180	0xbcad8f82	-0.021186594
181	0xbcd81687	-0.02637793
182	0xbcee6eaf	-0.029105512
183	0x3c64ce82	0.013965251
184	0x3c44da30	0.012014911
185	0xbc4a341c	-0.012341525
186	0xbd9f9644	-0.07792333
187	0xbcc15083	-0.023597961
188	0xbc8c0454	-0.017091908
189	0xbe0526ea	-0.13003126
190	0xbe2de4ee	-0.16981861
191	0xbddf20d2	-0.10894932
192	0xbdcdd000	-0.100494385
193	0xbdc2f42d	-0.09519229
194	0xbd8d0493	-0.06885638
195	0x3d47ca91	0.048777167
196	0xbd43a4ef	-0.047764715
197	0xbcd604cf	-0.02612534
198	0xbd56c9cb	-0.05243854
199	0xbdc29139	-0.09500355
200	0xbd362c05	-0.044475574
201	0xbd33b913	-0.043877672
202	0xbd98947b	-0.074501954
203	0xbdaabb33	-0.08336487
204	0xbc2374ba	-0.00997656
205	0xbd63f2c3	-0.055651437
206	0xbd6ca49b	-0.057774168
207	0xbc84bb7a	-0.016202677
208	0xbd421698	-0.04738483
209	0xbd26c493	-0.04071481
210	0xbc44c36a	-0.012009481
211	0xbd2ed53d	-0.04268383
212	0xbd736e54	-0.05943139
213	0x3c4f9dd3	0.012671906
214	0xbda216aa	-0.07914479
215	0xbd7323cb	-0.059360307
216	0xbc406445	-0.011742656
217	0xbd110150	-0.035401642
218	0x3a99463f	0.0011693909
219	0xbd742f0a	-0.059615172
220	0xbdb57ca3	-0.08861663
221	0xbd1cdbaa	-0.038295425
222	0xbd81ef98	-0.06344527
223	0xbda1d4c1	-0.07901908
224	0xbcf83099	-0.03029661
225	0x3c35dc81	0.0110999355
226	0xbd533208	-0.051561385
227	0xbd51d98c	-0.05123286
228	0xbcb56579	-0.022143112
229	0xbc89e30d	-0.016831899
230	0x3bfdbbd8	0.00774334
231	0xbd24ee79	-0.040266488
232	0xbda9663e	-0.08271454
233	0xbd5a55a6	-0.053304337
234	0x3d4b3dc2	0.049619444
235	0x3bffb920	0.007804051
236	0xbc70376f	-0.014661654
237	0x3cc992fc	0.02460622
238	0xbc17b24a	-0.009258816
239	0xbc88b698	-0.01668863
240	0x3ca73ac3	0.020413762
241	0x3bc3fa77	0.0059807855
242	0xbc8864f4	-0.0166497
243	0xbdc92191	-0.098208554
244	0xbdc93f70	-0.09826553
245	0x3c16062e	0.009156747
246	0xbd5f44e9	-0.054509077
247	0xbdc151f5	-0.0943946
248	0xbdbd7111	-0.09250081
249	0xbd64f4e2	-0.0558976
250	0xbdd08f4c	-0.10183582
251	0xbd8bd163	-0.06827047
252	0xbd264ead	-0.040602375
253	0xbd68dd9b	-0.056851964
254	0xbd54cb2d	-0.051951576
255	0xbb8c33d9	-0.0042786417

E.4.bias f4 [40]
0	0x3d0fe731	0.03513259
1	0xbd9f8dbb	-0.07790705
2	0x3de9a197	0.11407774
3	0xbe0f81e1	-0.14014389
4	0xbd91e88f	-0.07124435
5	0x3e212b83	0.15739255
6	0xbd62b766	-0.055350684
7	0xbcbb20cd	-0.02284279
8	0x3d57998b	0.052636664
9	0xbd8be2a2	-0.06830336
10	0xbd6ed06d	-0.05830424
11	0xbb3256f0	-0.0027212463
12	0x3d8b47f3	0.068008326
13	0x3d24a342	0.040194757
14	0x3c1f59b4	0.009725977
15	0xbc52b795	-0.012861152
16	0x3da33efd	0.079709984
17	0x3e6d7eee	0.23192951
18	0x3d6b7edf	0.05749404
19	0x3db7a624	0.08967236
20	0x3dc520a3	0.096253656
21	0xbd124e7f	-0.03571939
22	0x3d521ae6	0.051295184
23	0x3d734501	0.05939198
24	0x3d1e3a5d	0.03862988
25	0xbd2ad887	-0.041710403
26	0xbd478d00	-0.048718452
27	0x3d9f0461	0.07764507
28	0xbcfd7435	-0.0309392
29	0xb9c02b88	-0.00036653527
30	0x3cf8feaa	0.03039487
31	0xbc86636a	-0.016404826
32	0x3d5a5bf0	0.053310335
33	0xbe1c8b77	-0.15287577
34	0xbd87baeb	-0.06627449
35	0xbdd85bbc	-0.10564372
36	0xbc9b1f3d	-0.018935794
37	0x3dcc3ce8	0.099725544
38	0x3ce15c80	0.027509928
39	0xbd8b5c4f	-0.06804716

E.4.weight_orig f4 [40, 40, 3, 3]
0	0xbd4eeab7	-0.05051681
1	0x3c808d4c	0.015692376
2	0x3ce6e2b4	0.028184272
3	0xbd197cf8	-0.037472695
4	0xbdabd5e3	-0.08390405
5	0x3d49e86b	0.049293917
6	0xb96c4fb6	-0.00022536409
7	0xbb838adb	-0.0040143556
8	0x3bb3ab3b	0.0054830587
9	0x3b715c40	0.0036828667
10	0xbdf3df7d	-0.119078614
11	0x3c0076f1	0.007840858
12	0x3bca5a33	0.0061753034
13	0x3cd88fde	0.026435789
14	0xbb0299a7	-0.001992801
15	0x3da49582	0.08036329
16	0x3c222a5f	0.009897797
17	0xbd39f907	-0.045403507
18	0xbcb5114a	-0.02210297
19	0xbd204df1	-0.03913683
20	0x3bdebff9	0.0067977873
21	0xbd3a71ee	-0.045518808
22	0x3d2536bb	0.0403354
23	0xbd043d6e	-0.032285146
24	0x3d62a8af	0.05533665
25	0x3bc43e0e	0.005988843
26	0x3c2472a5	0.010037099
27	0x3c84c76e	0.016208377
28	0xbaa8e717	-0.0012886253
29	0xbd7c535b	-0.06160293
30	0x3d2a9132	0.041642375
31	0x3d255046	0.040359758
32	0xbd3bf208	-0.045885116
33	0x3cfe8c67	0.031072808
34	0xbca0cbc6	-0.019628417
35	0xbcd70029	-0.026245194
36	0xbbd22487	-0.006413046
37	0x3d058dc9	0.03260592
38	0xbd66527a	-0.056231
39	0xbcf04ca8	-0.029333428
40	0x3d2acc78	0.041698903
41	0xbcbb5c83	-0.022871261
42	0x3c43ef44	0.011958901
43	0x3db4e715	0.08833138
44	0x3dd79b0b	0.10527619
45	0x3e57b134	0.21063691
46	0x3d97f1e5	0.074191846
47	0xbd2aabb8	-0.04166767
48	0x3e27d194	0.16388541
49	0x3e4c79de	0.19968364
50	0x3d487b09	0.04894546
51	0x3d885c4c	0.06658229
52	0x3dbf4cd6	0.09340827
53	0x3d61e60e	0.055151038
54	0x3d6603ca	0.056155957
55	0xbd22b338	-0.039721698
56	0xbd203623	-0.03911413
57	0xbc8e2a73	-0.017354226
58	0xbc7b946c	-0.015355211
59	0x3cc346cf	0.023837475
60	0x3d4d23a8	0.050082833
61	0x3d8b77e8	0.0680998
62	0x3debf928	0.11522132
63	0xbc84d198	-0.016213223
64	0x3d9548a6	0.07289247
65	0x3dc5681c	0.09638998
66	0x3ca66f96	0.02031688
67	0x3b88782d	0.0041647167
68	0xbc2ce0b2	-0.010551618
69	0x3e02b35f	0.12763737
70	0x3d9e5b13	0.07732215
71	0xbd4142b3	-0.04718275
72	0x3d333d74	0.04375978
73	0x3cfed737	0.031108482
74	0xbc903e3d	-0.017607803
75	0x3d724749	0.059150014
76	0x3d27775f	0.040885326
77	0x3cef6faa	0.02922805
78	0x3d42ab7b	0.047526818
79	0x3d4c57a2	0.04988826
80	0x3cc4b058	0.024009869
81	0x3b852680	0.0040634274
82	0x3bb422a4	0.0054972935
83	0x3cedd349	0.029031413
84	0xbcd3fe01	-0.025877954
85	0xbd4cf289	-0.050035987
86	0x3d3504d8	0.044194072
87	0xbd701e84	-0.058622852
88	0xbda3172c	-0.07963404
89	0x3deea99f	0.116534464
90	0x3c9e3a62	0.019314948
91	0x3c830b08	0.015996471
92	0x3bc264a2	0.0059324065
93	0x3cc52fe2	0.024070684
94	0x3d124d6b	0.035718363
95	0xbd35df56	-0.044402443
96	0x3d9e301a	0.077240184
97	0xbb597cd1	-0.0033185969
98	0xbc2c5e61	-0.010520549
99	0x3d76eb5e	0.060283057
100	0x3bcd8406	0.006271842
101	0x3c5a6acf	0.013331129
102	0x3c5c2030	0.0134354085
103	0x3d4987ed	0.049201895
104	0x3c544cf2	0.012957798
105	0x3d5668d5	0.05234607
106	0xbc66a852	-0.014078217
107	0xbd0316e6	-0.03200426
108	0xbd37e06f	-0.04489177
109	0xbd79dd80	-0.061002254
110	0xbda04407	-0.07825475
111	0xbd59c480	-0.053165913
112	0x3ac41a90	0.001496153
113	0xbd8d5eb8	-0.06902832
114	0xbd018c0e	-0.031627707
115	0xbdac6d0b	-0.08419236
116	0xbc879cc7	-0.01655425
117	0x3d3e988d	0.046532203
118	0x3d906fae	0.07052551
119	0x3da01d5d	0.078181006
120	0xbcffa9c4	-0.03120888
121	0x3ba0e611	0.0049102386
122	0x3ce0e2d7	0.027451916
123	0x3b544258	0.0032388177
124	0xbcab8664	-0.020938106
125	0x3bdc3e0b	0.0067212633
126	0x3d776eab	0.060408276
127	0x3d9d7579	0.07688422
128	0x3db6ea98	0.08931464
129	0xbd55b7ca	-0.052177228
130	0x3ddefdfe	0.10888289
131	0x3c293821	0.010328324
132	0x3cfd2d22	0.03090531
133	0x3e3dd74e	0.18539163
134	0x3e4f98e1	0.20273162
135	0x3cc1250d	0.023577238
136	0x3dff6032	0.1246952
137	0xbdbe009d	-0.09277461
138	0x3c1fcdfc	0.0097537
139	0x3d90f40e	0.070778
140	0x3b19f9e5	0.0023494896
141	0x3d568b6c	0.052379057
142	0x3e189038	0.14898765
143	0x3ddf807a	0.10913177
144	0xbd6d4d92	-0.057935305
145	0xbc4d5963	-0.0125335185
146	0x3c17d948	0.0092681125
147	0xbcb5c582	-0.022188906
148	0xbc624bbb	-0.013812001
149	0xbd458034	-0.048217967
150	0x3c90b6bb	0.017665258
151	0x3c113844	0.008863512
152	0xbd409e38	-0.04702589
153	0x3ca990e0	0.020698965
154	0xbcb6e303	-0.022325044
155	0xbd549a31	-0.05190486
156	0x3d8b4805	0.06800846
157	0x3d131753	0.035910916
158	0xbcb6bdd5	-0.022307316
159	0x3da360dc	0.07977459
160	0x3bb064cd	0.00538311
161	0xbd55146c	-0.05202143
162	0x3da386fc	0.079847306
163	0x3d0b57ad	0.03401916
164	0x3d9016c5	0.07035593
165	0xbcc8cb5b	-0.02451103
166	0xbd139dbc	-0.0360391
167	0x3b8ab215	0.004232655
168	0x3e8a2040	0.2697773
169	0x3e12aae4	0.14323002
170	0x3d8b3bc8	0.06798512
171	0x3a2c681e	0.0006576794
172	0xbdbf4f18	-0.09341258
173	0xbd7cf466	-0.061756514
174	0x3c7faf21	0.015605719
175	0xbdda722d	-0.106663086
176	0x3c300f7d	0.01074588
177	0x3d8b17a2	0.06791617
178	0x3cb30a5d	0.021855528
179	0xbc57b7d2	-0.013166385
180	0xbc95ecca	-0.018301386
181	0xbe159478	-0.14607418
182	0xbd0d3b2e	-0.034480266
183	0x3d5b8cfb	0.053601246
184	0xbd14cf9e	-0.03633081
185	0xbd1df5ef	-0.03856462
186	0xbd8fd927	-0.070238404
187	0xbb1d461d	-0.002399809
188	0x3e1a0c1e	0.15043685
189	0x3cc07309	0.023492353
190	0x3d5b3760	0.053519607
191	0x3cd49da1	0.02595407
192	0x3b18a698	0.0023292657
193	0x3c8ecef6	0.017432671
194	0xbcb3bcc8	-0.021940604
195	0xbb92bcc4	-0.004478069
196	0x3c6609ad	0.014040393
197	0xbcb6b74d	-0.022304201
198	0x3dc0f59a	0.09421845
199	0xbb4e75e2	-0.003150337
200	0xbd0dfac1	-0.034662966
201	0x3cb0beea	0.02157541
202	0xbdcfa385	-0.10138611
203	0xbd76e804	-0.06027986
204	0xbd9eab1b	-0.077474795
205	0xbd65d324	-0.056109563
206	0x3d9242fc	0.071416825
207	0xbd6368f6	-0.05552002
208	0xbde2910a	-0.1106282
209	0x3ccb79e1	0.02483839
210	0xbde37489	-0.11106212
211	0xbe0ee49c	-0.13954395
212	0xbd812f14	-0.063078076
213	0xbcfe60cb	-0.031052014
214	0xbde354c6	-0.111001536
215	0xbd0fa223	-0.035066735
216	0xbe4e7994	-0.20163566
217	0x3d2a2466	0.04153862
218	0xbbce8637	-0.0063026207
219	0xbe207ce4	-0.15672642
220	0xbd3d8ec8	-0.046278745
221	0xbd3c938b	-0.046039145
222	0xbd8c96be	-0.06864689
223	0x3de96981	0.113970764
224	0xbcf208b5	-0.029545167
225	0x3bbb7250	0.005720414
226	0xbcd34c0b	-0.025793096
227	0xbd42b45d	-0.04753529
228	0xbdb56732	-0.088575736
229	0xbdda3b9a	-0.10655899
230	0xbdb6f43a	-0.08933301
231	0x3db7d487	0.08976083
232	0x3d1ebccb	0.038754266
233	0x3c9a0af4	0.018804051
234	0xbdc2a176	-0.095034525
235	0x3cb9d25d	0.022683317
236	0xbc777f6b	-0.015106062
237	0xbde70cba	-0.11281724
238	0x3da5534c	0.08072528
239	0x3c9ea675	0.019366482
240	0xbd840236	-0.06445734
241	0x3cb2dd16	0.021833938
242	0xbc07df2d	-0.008292955
243	0xbb0417e0	-0.0020155832
244	0x3a2c71dd	0.0006578246
245	0xbc868830	-0.016422361
246	0x3d20d8de	0.03926932
247	0x3d50afe8	0.050949007
248	0xb99b447f	-0.00029614937
249	0x3db5a70a	0.08869751
250	0x3ca43493	0.0200446
251	0x3cb15e11	0.0216513
252	0xbc6e104f	-0.014530255
253	0x3d8546c5	0.06507639
254	0x3d91942e	0.07108341
255	0xbd16e986	-0.0368438

E.4.weight_u f4 [40]
0	0x3d6dc5a3	0.05804981
1	0x3e36d6f6	0.17855439
2	0x3cefbb3a	0.029264081
3	0xbd7dce82	-0.06196452
4	0xbec325ee	-0.38114876
5	0x3e91d6c0	0.28484154
6	0x3de4ad62	0.11165883
7	0x3d4dcd84	0.050244823
8	0x3e1be26f	0.15223096
9	0x3dcded48	0.100550234
10	0xbdb94597	-0.09046476
11	0xbe60fb8f	-0.21970962
12	0xbcce0090	-0.025146753
13	0xbcf0b375	-0.029382447
14	0xbe039b78	-0.12852275
15	0xbdee4d10	-0.11635792
16	0xbd556cec	-0.05210583
17	0xbdf03253	-0.117283486
18	0xbe00d22a	-0.12580171
19	0xbcc410b7	-0.023933752
20	0xbe31765e	-0.1733031
21	0xbe5ec838	-0.21756065
22	0xbd7ba4af	-0.06143635
23	0xbe0cd6c1	-0.13753797
24	0x3e0f2172	0.13977602
25	0xbd7adb4b	-0.06124429
26	0x3e668f4e	0.22515604
27	0x3bfada63	0.0076554283
28	0xbe073954	-0.13205463
29	0xbed7f0e1	-0.42175964
30	0xbde13fce	-0.10998498
31	0xbdf958b0	-0.12175119
32	0x3e92a72c	0.28643167
33	0x3da5825c	0.08081505
34	0xbe21f3c6	-0.15815648
35	0x3d625c39	0.05526373
36	0x3b02b264	0.0019942755
37	0x3e5a81ee	0.21338627
38	0x3cd026e8	0.025409177
39	0x3d956e12	0.07296385

E.4.weight_v f4 [360]
0	0x3b007cc2	0.0019605611
1	0x3cd4535b	0.025918653
2	0x3ce210a4	0.027595825
3	0x3ce26db4	0.027640201
4	0x3a3ab2e0	0.00071219914
5	0x3ca37db0	0.019957393
6	0x3b2afbb3	0.0026089966
7	0xbb7c91e9	-0.0038539118
8	0xbc012268	-0.007881738
9	0xbca0aed1	-0.019614609
10	0xbd040bc3	-0.03223778
11	0xbd97287b	-0.07380768
12	0x3d5d4e23	0.054029595
13	0x3d0747cb	0.03302745
14	0xbc588b62	-0.013216825
15	0x3dc0363f	0.093853466
16	0x3d9b5304	0.07584193
17	0x3d8e20e5	0.06939868
18	0xbcd8ab15	-0.026448766
19	0xbdb66246	-0.08905463
20	0xbe19fb58	-0.15037286
21	0x3cc24672	0.023715232
22	0xbc8d237a	-0.01722883
23	0xbdd04da7	-0.10171061
24	0x3db7a7e0	0.089675665
25	0x3d7ae425	0.06125273
26	0xbd527aca	-0.051386632
27	0xbc2ae6c0	-0.010430992
28	0xbd1f818b	-0.0389419
29	0xbdd9b3c1	-0.106299885
30	0x3dab54f5	0.08365814
31	0x3cb28f55	0.021796862
32	0xbd713023	-0.058883797
33	0x3e178fde	0.14800975
34	0x3dcc425e	0.09973596
35	0x3b0fea74	0.0021959813
36	0x3c26efc0	0.010188997
37	0xbd78460a	-0.06061367
38	0xbd6535bb	-0.055959444
39	0x3c9e1dbb	0.019301286
40	0xbcdf445f	-0.027254282
41	0xbd46353b	-0.04839061
42	0x3d94a4ae	0.07257973
43	0x3cfb0ac9	0.030644791
44	0xbd11c89f	-0.035591718
45	0x3d3e792b	0.046502274
46	0xbc643722	-0.01392916
47	0xbcd133a7	-0.025537325
48	0xbd80eb70	-0.06294906
49	0xbd5ba6a4	-0.053625718
50	0xbd288fd6	-0.041152798
51	0xbdad9af6	-0.08476822
52	0xbdac34a0	-0.08408475
53	0x3aad1655	0.0013205508
54	0xbd15334b	-0.03642587
55	0xbc0cb889	-0.0085889185
56	0xbb0bf00a	-0.0021352791
57	0xbcbc4ea5	-0.02298672
58	0xbd2c407d	-0.04205369
59	0xbceaba6a	-0.028653342
60	0xbd4401ca	-0.04785327
61	0xbd3a17a0	-0.045432687
62	0xbd754438	-0.05987951
63	0xbcdf7879	-0.027279126
64	0xbca63e70	-0.020293444
65	0xbcb99ce8	-0.022657827
66	0xbc9364e9	-0.017992454
67	0xbbfdb9db	-0.007743103
68	0x3ba89b8b	0.0051454953
69	0x3cb8568b	0.022502204
70	0xbb42595b	-0.002965531
71	0xbc9f763a	-0.019465555
72	0x3bf1199f	0.0073577906
73	0xbcc15713	-0.02360109
74	0xbd76fd95	-0.06030043
75	0x3d6e29a2	0.058145173
76	0x3cf29354	0.029611267
77	0xbcc948e6	-0.024570893
78	0x3dd10200	0.102054596
79	0x3ddfe6ff	0.10932731
80	0x3cdc544a	0.02689566
81	0xbced548b	-0.028970977
82	0xbc4c492d	-0.012468618
83	0x3c968c15	0.018377343
84	0xbd016c2b	-0.031597298
85	0xbcfa77bb	-0.03057467
86	0x3cb365cf	0.021899132
87	0xbd51de23	-0.051237237
88	0xbd42b7cb	-0.04753856
89	0x3c8b937a	0.017038096
90	0x3c6bba36	0.014387658
91	0xbd8a1ac6	-0.06743388
92	0xbded910f	-0.11599933
93	0x3cfe4667	0.03103943
94	0xbd0fb3c0	-0.035083532
95	0xbd819844	-0.063278705
96	0x3d2ccd91	0.04218823
97	0x3bcc8be5	0.0062422627
98	0xbd528601	-0.051397327
99	0xbcd9e46f	-0.026598183
100	0xbcd2ea51	-0.025746496
101	0x3ad082c5	0.0015908113
102	0xbcc2a39d	-0.023759658
103	0xbd48680e	-0.04892736
104	0xbcbfa1b5	-0.023392538
105	0x3cd0489c	0.025425248
106	0xbc403d6a	-0.011733392
107	0xbc7f6254	-0.015587408
108	0xbc3a6ff5	-0.011379232
109	0xbd21826b	-0.039431017
110	0xbd8ff356	-0.070288345
111	0x3cd7d870	0.026348323
112	0xbb715fe6	-0.0036830842
113	0xbd105485	-0.035236854
114	0x3ce545e1	0.027987422
115	0x3d253935	0.04033776
116	0x3c1cb11b	0.00956371
117	0xbd604ce1	-0.054760817
118	0xbd95fd35	-0.07323686
119	0xbdb337ac	-0.08750853
120	0x3c084bcc	0.008318853
121	0xbcafcbeb	-0.02145954
122	0xbd330299	-0.04370365
123	0x3d10f3de	0.03538882
124	0x3cb6a2fc	0.022294514
125	0xbcaad916	-0.020855468
126	0xbc8c8a4f	-0.017155794
127	0xbc783a58	-0.015150629
128	0x3ce5f732	0.028071973
129	0xbc6b942d	-0.01437859
130	0xbd7b8d38	-0.061413974
131	0x3d1e2780	0.03861189
132	0xbd4e3b14	-0.05034931
133	0xbdc2beed	-0.095090725
134	0x3d32ae39	0.043623183
135	0xbd34bcdb	-0.04412542
136	0xbd9d57f2	-0.0768279
137	0xbd6162db	-0.055025917
138	0xbcebe8d9	-0.028797554
139	0xbc283093	-0.010265487
140	0xbcd42126	-0.025894713
141	0x3b6b9a94	0.003595029
142	0x3cdcc96e	0.026951518
143	0x3c8afcff	0.016966341
144	0xbc281c26	-0.010260617
145	0xbd3d9305	-0.046282787
146	0xbdd92804	-0.106033355
147	0x3d8998ea	0.06718619
148	0x3d699a56	0.05703195
149	0xbc9d3997	-0.0191925
150	0x3e00b512	0.12569073
151	0x3e03b6c8	0.12862694
152	0x3cbae79f	0.022815524
153	0x3d80d2cd	0.06290207
154	0x3bff17fb	0.007784841
155	0xbd0e4ab3	-0.034739207
156	0x3de42c9b	0.1114132
157	0x3daf3531	0.08555067
158	0x3cbc78ec	0.023006879
159	0x3e028ee6	0.12749824
160	0x3e06fb1b	0.13181727
161	0x3d9e9f68	0.07745248
162	0x3ce8797a	0.028378237
163	0x3d55a23c	0.052156672
164	0x3d022410	0.031772673
165	0xb9ea2692	-0.00044660695
166	0xbce346fe	-0.027743813
167	0x3d6d2399	0.057895277
168	0xbd399f57	-0.045317974
169	0xbd382787	-0.04495957
170	0x3b6ff6af	0.003661554
171	0x3dd04f85	0.10171417
172	0x3d41cca2	0.047314294
173	0x3cf5235a	0.029924084
174	0x3d93df1c	0.07220289
175	0xbc6ec03c	-0.014572199
176	0x3ca90774	0.020633437
177	0xbce89fe6	-0.028396558
178	0x3c5a1e92	0.013312953
179	0x3d2dc618	0.042425245
180	0x3bbcc7c1	0.005761117
181	0x3d10348a	0.035206355
182	0x3d15724b	0.03648595
183	0x3ca55956	0.0201842
184	0x3d1e8482	0.038700588
185	0x3d3af9f7	0.04564854
186	0xbce24fa4	-0.027625866
187	0x3bbb359a	0.005713177
188	0x3d47bd7a	0.048764683
189	0xbc9c60eb	-0.019089183
190	0xbd83be8f	-0.064328305
191	0xbded4347	-0.11585098
192	0x3d386af6	0.04502388
193	0x3c98a832	0.01863489
194	0xbd414d92	-0.047193117
195	0x3dc5e508	0.09662825
196	0x3d7d014d	0.06176882
197	0xbb70a80f	-0.0036721264
198	0x3cd29ef1	0.025710555
199	0xbca989c9	-0.020695584
200	0xbc91b087	-0.01778437
201	0x3c22a5bd	0.00992721
202	0xbd82daef	-0.063894145
203	0x3c253652	0.010083752
204	0xbd305e27	-0.04305854
205	0xbd83927a	-0.064244226
206	0x3be09960	0.006854221
207	0x3d380ac4	0.044932142
208	0x3bdf9898	0.0068236105
209	0x3c4e456d	0.012589795
210	0xbbec4a55	-0.0072110095
211	0xbd21b9dd	-0.039483894
212	0xbc3817e0	-0.011236161
213	0xb9a35f0a	-0.00031160592
214	0xbcabaf04	-0.020957477
215	0xbd374891	-0.04474694
216	0x3d925713	0.07145514
217	0x3a28408f	0.00064183114
218	0x3c4f0f27	0.01263789
219	0x3d0b9b63	0.034083735
220	0xbd5ab016	-0.053390585
221	0xbc50fe51	-0.012755946
222	0xbcf1b7b1	-0.029506536
223	0xbca1fa51	-0.01977268
224	0xbd8adf42	-0.06780864
225	0x3dbe0a14	0.09279266
226	0x3df24771	0.118300326
227	0x3d9e95c8	0.07743412
228	0x3d74d1f9	0.059770558
229	0x3d3872b2	0.045031257
230	0x3cb0bca5	0.021574328
231	0x3dce01d3	0.10058942
232	0x3d4df183	0.05027915
233	0x3d08c7b6	0.033393584
234	0x3b5f8228	0.0034104679
235	0xbbb51da9	-0.0055272174
236	0xbd08bc82	-0.0333829
237	0x3a97f0e0	0.0011592172
238	0x3c207725	0.009794031
239	0xbbcbd50b	-0.006220465
240	0xbb931b0e	-0.004489309
241	0xbc8acc5f	-0.016943155
242	0x3a564c61	0.00081748335
243	0x3d0d0084	0.03442432
244	0xbd7661b6	-0.06015178
245	0xbdc64e86	-0.09682946
246	0x3d72b925	0.0592586
247	0x3ca416c0	0.02003038
248	0xbd82f1a7	-0.06393748
249	0x3dd6c9ae	0.10487686
250	0x3d99282f	0.074783675
251	0xbc3fb480	-0.011700749
252	0xba99d394	-0.0011736029
253	0x3d06a043	0.03286768
254	0x3d9129d8	0.07088059
255	0x3b5aae08	0.003336789

E.6.bias f4 [40]
0	0x3cb8798f	0.022518901
1	0x3d95cbb8	0.07314247
2	0x3cb7e576	0.022448283
3	0x3dfb656f	0.12275206
4	0xbdb862b6	-0.090032026
5	0xbc80ff18	-0.015746638
6	0x3dd7f7e2	0.10545327
7	0x3b05424c	0.0020333705
8	0xbd7e7504	-0.062123314
9	0x3dec48bf	0.11537313
10	0x3c857b90	0.01629427
11	0x3d456c04	0.048198715
12	0xbb9ef793	-0.0048512905
13	0xbe178dcb	-0.14800183
14	0x3ded983b	0.11601301
15	0x3d5c445f	0.05377614
16	0xbd786349	-0.06064156
17	0xbdadcab6	-0.0848593
18	0x3ba48750	0.0050210133
19	0xbd8e5614	-0.06950012
20	0xbc539426	-0.012913739
21	0xbdb832b9	-0.089940496
22	0x3e33fcc8	0.17576897
23	0x3d3e33c5	0.04643609
24	0x3db48630	0.08814657
25	0x3ced4b81	0.028966667
26	0x3d468773	0.04846902
27	0xbd58b83b	-0.05291007
28	0x3c56dda9	0.013114371
29	0xbe01e86f	-0.12686323
30	0x3e16561b	0.14681284
31	0x3d8099a7	0.06279307
32	0xbd46a99d	-0.0485016
33	0x3e9eff57	0.31054184
34	0x3c0b1fd0	0.008491471
35	0x3dbe50ff	0.092927925
36	0xbd9bf102	-0.07614328
37	0x3d5ad145	0.05342223
38	0x3d41628a	0.047213115
39	0xbdc3f12a	-0.09567483

E.6.weight_orig f4 [40, 40, 3, 3]
0	0xbd08fcf0	-0.033444345
1	0xbde08be5	-0.10964183
2	0xbdcc4097	-0.09973257
3	0xbcb25b48	-0.021772042
4	0xbc8bb3c6	-0.017053496
5	0xbb988351	-0.004654326
6	0x3d8b3a9d	0.06798289
7	0x3d3feb1e	0.046855085
8	0x3d94307b	0.072358094
9	0x3d47e948	0.04880646
10	0x3db76ee7	0.089567
11	0x3dda691d	0.1066458
12	0x3db24aef	0.08705699
13	0x3d9f2c3d	0.0777211
14	0x3dc8daf1	0.09807385
15	0x3db36980	0.08760357
16	0x3dae88d6	0.08522193
17	0x3dbbc569	0.091685124
18	0x3b70a8bd	0.003672167
19	0xbd1a12ce	-0.03761559
20	0xbde671e8	-0.11252195
21	0x3cf9b65c	0.030482464
22	0x3c867804	0.01641465
23	0xbcfaf722	-0.03063542
24	0x3dbc3bc7	0.09191089
25	0x3cd61cb6	0.026136737
26	0xbd28a420	-0.041172147
27	0xbc0f3412	-0.008740442
28	0x3d21c76c	0.039496824
29	0x3da59b2d	0.08086238
30	0xbc9d6b88	-0.019216314
31	0x3d3d9dc7	0.046293046
32	0x3ab0ff5a	0.0013503835
33	0xbd9c7fa5	-0.07641534
34	0xbd333f0a	-0.04376129
35	0xbbc7534c	-0.006082928
36	0xbcbc6562	-0.022997562
37	0xbd3d8382	-0.046267994
38	0x3d4727cd	0.04862194
39	0xbcf4cb2b	-0.029882034
40	0xbd473d3f	-0.048642393
41	0x3d2fe739	0.04294512
42	0xbcfd0166	-0.030884456
43	0xb7b61730	-2.1706888e-05
44	0x3d6d6e8d	0.057966758
45	0x3db9b7c6	0.09068255
46	0x3ddb3a63	0.10704496
47	0x3de02fa2	0.10946585
48	0x3dc28d7b	0.094996415
49	0x3e068364	0.13136059
50	0x3d96531c	0.073400706
51	0x3de59c78	0.11211485
52	0x3db5f5fb	0.08884808
53	0x3da215d5	0.079143204
54	0x3d9e9fbe	0.07745312
55	0xbcd8e204	-0.02647496
56	0x3cfe34e6	0.031031083
57	0x3d4cc575	0.049992997
58	0x3cd76cdd	0.026297027
59	0x3cfbee73	0.03075335
60	0x3d9adbd5	0.07561461
61	0x3d126ed0	0.03575021
62	0x3d914dfa	0.07094951
63	0x3d9ad636	0.07560389
64	0x3d7545c3	0.059880983
65	0x3d116380	0.03549528
66	0x3dbcda9b	0.09221383
67	0x3cd8c022	0.026458804
68	0x3c8217e6	0.015880536
69	0x3d154ff0	0.036453187
70	0x3d039b4c	0.032130525
71	0x3d5c6f81	0.053817276
72	0x3df98d2e	0.12185131
73	0x3d9207e5	0.07130412
74	0x3d385a37	0.04500791
75	0x3d9dd005	0.07705692
76	0xbba8eac6	-0.0051549403
77	0x3c47983c	0.012182292
78	0x3ce01fd3	0.027358925
79	0xbd9248a6	-0.07142763
80	0xbdf16e49	-0.11788613
81	0x3b93c6ab	0.004509767
82	0x3b5d9dd9	0.0033816008
83	0x3d2dff6d	0.04247992
84	0x3d225bfe	0.03963851
85	0x3d6044e6	0.054753207
86	0x3c2fb451	0.010724143
87	0x3d6dc0ed	0.058045316
88	0x3cda7a73	0.026669716
89	0x3c5a9929	0.01334218
90	0x3e196cb5	0.14982875
91	0x3e018403	0.12648015
92	0x3db672cc	0.089086145
93	0x3e007ece	0.12548372
94	0x3dd8be00	0.105831146
95	0x3d8fa2e5	0.070134915
96	0x3d9d271f	0.076734774
97	0x3e05a62d	0.13051672
98	0x3dfe4c6d	0.12416921
99	0xb893801e	-7.03337e-05
100	0x3d3b3301	0.045702938
101	0x3d4c34cc	0.04985504
102	0x3d8c96b1	0.068646796
103	0x3de2a43d	0.11066482
104	0x3cf435e4	0.029810853
105	0x3bc36be5	0.0059637898
106	0x3d92f2c1	0.07175208
107	0xbc1d452d	-0.009599012
108	0x3d423434	0.047413066
109	0xbcd6749e	-0.026178654
110	0xbd997d5c	-0.074946135
111	0x3cd7bb54	0.026334442
112	0xbc40a656	-0.011758408
113	0xbd744f81	-0.059646133
114	0xbc923497	-0.017847342
115	0xbc0406af	-0.008058234
116	0xbd0a7e06	-0.03381159
117	0x3c032aeb	0.008005838
118	0x3c3363d9	0.0109490985
119	0xbbc25062	-0.0059299925
120	0x3d0f8d76	0.035047017
121	0x3baa4c40	0.005197078
122	0xbcb0df59	-0.021590875
123	0x3d13cde9	0.036085043
124	0xbd23a871	-0.03995556
125	0xbd02cfb2	-0.031936355
126	0xbd89b3c1	-0.067237385
127	0x3ccdc7fe	0.025119778
128	0xbcab7bfe	-0.020933148
129	0xbd0733e1	-0.03300846
130	0x3d971c5c	0.07378456
131	0xbce770f2	-0.028252099
132	0xbcff2504	-0.03114558
133	0x3d09822c	0.033571407
134	0xbcd63c1f	-0.026151715
135	0x3c5a5aa0	0.013327271
136	0x3d56f53c	0.052479967
137	0x3d5e947b	0.05434082
138	0x3d8ce3e4	0.06879404
139	0x3da8a512	0.0823461
140	0x3d70fdbc	0.05883573
141	0x3d18fedf	0.03735244
142	0x3d87a9ad	0.0662416
143	0x3db069bf	0.086139195
144	0xbd8e8cb5	-0.069604315
145	0xbdcf3385	-0.101172484
146	0xbdcd0fa7	-0.10012751
147	0xbdaa704c	-0.083222
148	0xbdbc7c0e	-0.09203349
149	0xbd8911e7	-0.06692868
150	0xbd90ae32	-0.07064475
151	0xbd0ee278	-0.034883946
152	0xbb0dafe5	-0.0021619734
153	0xbc00c558	-0.00785955
154	0x3ba8deca	0.0051535117
155	0xbcab9d78	-0.02094911
156	0xbcc98acd	-0.024602318
157	0xbc3ed96c	-0.011648517
158	0xbaed4b30	-0.0018104073
159	0x3cb27a95	0.021786967
160	0x3d8144c1	0.06311942
161	0x3d09aea7	0.033613827
162	0x3db7a594	0.089671284
163	0x3cea9506	0.028635513
164	0xbd84592e	-0.06462322
165	0x3dd50595	0.10401455
166	0x3d30d0cb	0.04316787
167	0xbdd2364f	-0.10264265
168	0x3d8b19aa	0.067920044
169	0x3d981b92	0.074271336
170	0xbdcd3827	-0.10020476
171	0x3d029c05	0.031887073
172	0x3d068276	0.03283926
173	0x3ce11878	0.027477488
174	0x3d8bdfdb	0.068298064
175	0x3d6517b2	0.0559308
176	0x3ceb9ccb	0.028761288
177	0x3d438d4f	0.047742184
178	0x3d0e1fad	0.034698177
179	0x3d6587fc	0.056037888
180	0xbbf1612a	-0.007366319
181	0xbd060756	-0.03272184
182	0xbc8862e9	-0.016648727
183	0xbd99fad7	-0.07518547
184	0xbdd5a835	-0.104324736
185	0xbda952a6	-0.08267717
186	0xbdfadee9	-0.12249548
187	0xbdfcba88	-0.123402655
188	0xbce69e50	-0.028151661
189	0x3d9ff187	0.078097396
190	0x39b4736f	0.0003441828
191	0xbd80c332	-0.062872306
192	0x3cf7809d	0.030212695
193	0xbc955903	-0.01823092
194	0xbdda5866	-0.10661392
195	0x3d7cbe82	0.06170512
196	0xbbbd7595	-0.005781839
197	0xbd905970	-0.07048309
198	0xbdab83de	-0.08374761
199	0xbdaf1e58	-0.085507095
200	0xbd363ede	-0.04449355
201	0xbd8deeba	-0.06930299
202	0xbced0a97	-0.028935714
203	0xbc97f452	-0.018549118
204	0xbd07dd48	-0.033170015
205	0x3be04744	0.006844433
206	0x3dd6acfa	0.104822114
207	0xbd8ce697	-0.06879919
208	0xbd8f66a6	-0.070020005
209	0xbc91720b	-0.017754575
210	0xbcca72ce	-0.024712946
211	0x3c4db9cb	0.0125565035
212	0xbd03dac3	-0.03219105
213	0x3d4cf312	0.050036497
214	0x3c2c5d70	0.010520324
215	0x3d8c7ea8	0.06860095
216	0x39d61ee1	0.00040840267
217	0xbb65f89f	-0.0035090817
218	0xbc813161	-0.015770616
219	0xbcb4c1d4	-0.02206508
220	0xbbe3d1e5	-0.0069525116
221	0xbcb525df	-0.022112785
222	0xbcbf254b	-0.023333212
223	0x3d2942db	0.041323524
224	0x3bad823c	0.005295066
225	0xbca0ab31	-0.01961288
226	0xbcff9add	-0.031201774
227	0x3d92edaf	0.07174241
228	0xbdba9861	-0.09111095
229	0xbdc00abe	-0.09377049
230	0x3d3b9258	0.04579386
231	0xbb5ea895	-0.0033974994
232	0xbccd1650	-0.025035053
233	0x3d727100	0.059189796
234	0xbc162a44	-0.00916535
235	0xbdebafa8	-0.11508113
236	0xbdbd4c56	-0.092430755
237	0xbd0cc68d	-0.03436904
238	0xbdb0b85b	-0.08628913
239	0xbd38c728	-0.045111805
240	0xbd424391	-0.047427718
241	0xbd92af21	-0.071623094
242	0x3d0b1451	0.033954922
243	0x3e044af1	0.12919213
244	0x3d356dc3	0.04429413
245	0x3d18a286	0.03726437
246	0x3dffb189	0.12485034
247	0x3d4800d7	0.048828926
248	0x3cf0ba41	0.029385688
249	0x3d539027	0.051651146
250	0x3b52df2f	0.0032176485
251	0xbd89b5f5	-0.06724159
252	0xbcf54de7	-0.029944373
253	0xbd114d50	-0.03547412
254	0xbd14d0e0	-0.03633201
255	0xbd4f2706	-0.050574325

E.6.weight_u f4 [40]
0	0xbea96ba0	-0.33089924
1	0xbe64dcbb	-0.22349827
2	0x3d90038b	0.07031926
3	0x3eb6d067	0.35705873
4	0x3d887382	0.06662656
5	0x3e85c4fb	0.26126847
6	0xbeada649	-0.33915928
7	0xbcbe602d	-0.02323922
8	0xbea3b93a	-0.31977254
9	0x3ddd38d2	0.10801853
10	0xbcd8c02b	-0.02645882
11	0x3dad7d23	0.084711336
12	0x3ce5debb	0.028060308
13	0x3dc9e199	0.098574825
14	0xbd91b758	-0.07115048
15	0x3d6f1816	0.05837258
16	0x3da3eba8	0.08003932
17	0xbe03f918	-0.1288799
18	0x3d8630a3	0.065522455
19	0x3c599e10	0.013282314
20	0x3df3cc0e	0.11904155
21	0x3ce74f51	0.028236063
22	0xbda2154b	-0.079142176
23	0x3e52173e	0.20516679
24	0xbe54d5e9	-0.20784725
25	0xbde3707b	-0.11105438
26	0xbc1d3961	-0.0095962
27	0x3da0ed10	0.07857716
28	0xbd4a41c6	-0.049379133
29	0x3d1e3cfc	0.038632378
30	0x3da5290f	0.08064472
31	0x3dc74572	0.097300425
32	0x3e16b327	0.14716779
33	0x3e477257	0.19477211
34	0x3d1d57eb	0.038413923
35	0x3e1511f9	0.14557637
36	0xbe1e3836	-0.1545113
37	0x3e9e713b	0.30945763
38	0xbd64e9c3	-0.055886995
39	0xbd20bb1a	-0.039240934
