parameters/Crit_temp.pt (torch, 490931 bytes, 37 tensors)

E.0.bias f4 [40]
0.2460283 -0.38300523 -0.021247908 0.2617372 0.01824483 0.34774452 0.014985691 -0.0012391305
0.27806067 0.004157589 0.055789374 0.010817898 0.039128527 0.008078228 -0.0009216453 0.03002895
0.011699131 0.042194404 0.00066957664 0.017243754 -0.18964231 0.010334281 0.00582471 -0.001594328
-0.0010240142 -6.5156746e-05 0.26560777 1.22795145e-05 -9.417255e-05 -0.24778712 0.0033065085 -0.00039940194
0.04172854 0.0062302737 0.0040752264 -0.00031134704 0.0014889444 0.000834138 -0.005638307 7.4004514e-05
00000000: d8ee 7b3e 4319 c4be 1810 aebc 6b02 863e
00000010: 2f76 953c 920b b23e 8b86 753c 526a a2ba
00000020: f85d 8e3e 623c 883b 6683 643d 8e3d 313c
00000030: 3c45 203d 8b5a 043c 929a 71ba 46ff f53c
00000040: b6ad 3f3c 0ad4 2c3d 8786 2f3a c642 8d3c
00000050: 9831 42be 1e51 293c 35dd be3b c5f8 d0ba
00000060: 3738 86ba c3a4 88b8 befd 873e 1d04 4e37
00000070: 817e c5b8 e8bb 7dbe 02b2 583b d266 d1b9
00000080: 8ceb 2a3d 5327 cc3b 7a89 853b 4b3c a3b9
00000090: af28 c33a 0eaa 5a3a 8cc1 b8bb df32 9b38

E.0.weight_orig f4 [40, 3, 3, 3]
-0.010836208 0.05546526 -0.0025772888 0.03387608 0.12052817 0.074808076 -0.16113263 -0.109920695
-0.12153029 -0.052206267 -0.1850315 -0.07306903 0.12470317 0.023386488 0.069636635 0.0043012346
0.06521049 -0.13943473 -0.07697089 0.13908741 0.15845038 -0.10028288 0.024524322 0.10306822
-0.14943476 0.081944585 0.13722967 0.15089798 -0.0851886 0.032365356 0.049058903 -0.08104194
0.077603884 -0.04519964 0.15854235 -0.116162285 0.038781445 0.023777882 -1.7217984e-05 0.17462826
0.07605637 0.16778849 -0.07483889 -0.006248841 0.024797782 0.04162013 -0.10316418 0.055285897
-0.025665043 0.014474738 0.047579266 0.20716906 0.04505054 0.039881624 -0.16184516 -0.1072525
-0.13761747 -0.09553634 -0.2192784 -0.17440155 0.0032646428 -0.07282044 -0.18031149 0.100008
0.12623776 0.020762982 0.12204172 0.21604829 0.12969548 0.19226561 0.036568146 0.13614926
-0.02314031 -0.005157177 0.14133589 -0.021246668 -0.02497854 0.063472345 -0.008776074 -0.038879786
-0.088248305 -0.008641309 -0.031118361 -0.16939862 -0.07181589 -0.17228477 -0.17317705 0.106197625
0.12313489 0.10197244 -0.05216807 0.10008075 0.18975604 0.019152226 -0.0989691 0.034131937
-0.014944816 0.027432634 0.07646098 -0.007651943 -0.007033776 0.13169387 -0.110228755 0.0076281666
0.07284609 -0.09435754 -0.13582729 0.018489024 -0.124894425 -0.06613918 0.11940913 -0.1146512
0.08899823 0.06939472 0.06747726 0.020467905 0.011480807 -0.08665358 -0.14220126 0.045299612
-0.09484074 0.015061116 0.19667381 -0.08801094 -0.03403915 0.12629867 -0.27313876 -0.116647705
0.15580967 -0.19027661 -0.020690626 0.24635755 0.0930267 0.07395958 0.010297359 -0.14009887
0.073040634 -0.10923779 -0.041161638 -0.17981295 -0.0012778889 0.017969305 -0.11388981 -0.16466175
0.09254061 -0.069079906 -0.07091452 0.15848906 -0.0055187396 0.14732355 0.13932906 -0.117812455
-0.11035869 0.022287566 0.1598618 -0.10279654 0.014744613 -0.12679885 0.015829537 0.17753245
0.0003287167 -0.004544132 0.10327086 0.040050887 -0.0066844258 -0.05052411 -0.017866487 -0.17437124
0.14572181 0.11281973 -0.18506864 0.039182268 0.104197055 -0.08419366 0.15156777 -0.033174995
0.093867525 -0.12372339 0.06362232 -0.16297278 -0.14220896 0.0118551785 0.041951854 -0.0709276
0.18164061 0.22202587 -0.01125998 -0.01369483 0.2007582 0.3847315 0.18532008 -0.072279036
0.08896486 0.036286715 -0.047010735 -0.04145379 -0.100204684 -0.0548999 0.16331615 -0.06417326
-0.0074629206 -0.09210619 0.07184288 -0.014914299 -0.06879735 0.03409364 -0.07087372 0.0020139266
-0.067592144 -0.04530154 -0.05343925 -0.006835993 0.06924346 0.045349468 0.03877741 -0.009962371
0.13166451 -0.10734923 0.19260278 -0.15867716 0.03737076 0.16026318 0.038972348 -0.067040704
0.03007681 -0.16155012 -0.051922884 -0.13535385 0.0653728 0.087001316 0.013731195 -0.0142054055
0.029483443 0.112957545 -0.13844009 0.012430394 -0.21533704 0.048661966 0.1552152 -0.11633463
0.14628181 -0.12767111 -0.07153681 0.018129366 0.1417699 0.008643131 0.09224813 0.07617765
-0.028487142 -0.084943086 0.13067722 0.13512501 0.13861264 0.07743062 0.121895924 0.10417553
00000000: 5a8a 31bc 8a2f 633d bbe7 28bb a5c1 0a3d
00000010: 79d7 f63d fa34 993d f4ff 24be 1a1e e1bd
00000020: dfe4 f8bd 3dd6 55bd e678 3dbe 37a5 95bd
00000030: 6064 ff3d 0595 bf3c a79d 8e3d 5ff1 8c3b
00000040: 148d 853d fac7 0ebe eaa2 9dbd ee6c 0e3e
00000050: d140 223e 1c61 cdbd 3be7 c83c 6e15 d33d
00000060: 6d05 19be 90d2 a73d ef85 0c3e 0085 1a3e
00000070: 5c77 aebd 8991 043d fdf1 483d 51f9 a5bd
00000080: c9ee 9e3d 4223 39bd ed58 223e 7ee6 edbd
00000090: 4bd9 1e3d d5c9 c23c 576f 90b7 c0d1 323e
000000a0: 71c3 9b3d bfd0 2b3e 2245 99bd 14c3 ccbb
000000b0: b824 cb3c df79 2a3d be47 d3bd 7773 623d
000000c0: 7f3f d2bc 7427 6d3c 7ae2 423d 2024 543e
000000d0: ea86 383d ea5a 233d bdba 25be 33a7 dbbd
000000e0: 98eb 0cbe 8ea8 c3bd 848a 60be 5296 32be
000000f0: 9ef3 553b e222 95bd 93a3 38be ffd0 cc3d
00000100: 7944 013e 2117 aa3c 02f1 f93d c33b 5d3e
00000110: e4ce 043e 47e1 443e 7bc8 153d b66a 0b3e
00000120: bf90 bdbc 89fd a8bb 5bba 103e 7e0d aebc
00000130: cc9f ccbc cafd 813d 86c9 0fbc 6940 1fbd
00000140: 87bb b4bd 4794 0dbc efeb febc d576 2dbe
00000150: 3614 93bd 6b6b 30be 5355 31be 247e d93d
00000160: 252e fc3d edd6 d03d 30ae 55bd 23f7 cc3d
00000170: 684f 423e 21e5 9c3c 50b0 cabd eecd 0b3d
00000180: 1adb 74bc 67ba e03c 9397 9c3d 26bd fabb
00000190: 977b e6bb c2da 063e 9dbf e1bd b3f5 f93b
000001a0: 5530 953d 873e c1bd 4f16 0bbe 4b76 973c
000001b0: a6c8 ffbd fa73 87bd c68c f43d 40ce eabd
000001c0: b444 b63d d21e 8e3d 8531 8a3d 4fac a73c
000001d0: ff19 3c3c 6f77 b1bd 359d 11be 168c 393d
000001e0: dd3b c2bd e6c2 763c dc64 493e 143f b4bd
000001f0: a36c 0bbd 7054 013e d8d8 8bbe fee4 eebd
00000200: 928c 1f3e dfd7 42be 637f a9bc 2745 7c3e
00000210: c884 be3d 1f78 973d 41b6 283c 1476 0fbe
00000220: 5496 953d 10b8 dfbd 1b99 28bd e320 38be
00000230: d67e a7ba 5d34 933c 103f e9bd 179d 28be
00000240: ee85 bd3d c479 8dbd a23b 91bd f54a 223e
00000250: 8bd6 b4bb fcdb 163e 47ac 0e3e a847 f1bd
00000260: bd03 e2bd 6a94 b63c d0b2 233e fe86 d2bd
00000270: 6493 713c 8fd7 01be f2ac 813c 11cb 353e
00000280: 9c57 ac39 f1e6 94bb ac7f d33d 660c 243d
00000290: 0709 dbbb 5ff2 4ebd bd5c 92bc 608e 32be
000002a0: 1938 153e 080e e73d a282 3dbe 967d 203d
000002b0: 4465 d53d ba6d acbd 9534 1b3e 81e2 07bd
000002c0: 9e3d c03d b062 fdbd 6b4c 823d 56e2 26be
000002d0: 3a9f 11be 393c 423c b5d5 2b3d 7d42 91bd
000002e0: ffff 393e c05a 633e c77b 38bc 4860 60bc
000002f0: 8f93 4d3e 87fb c43e 8cc4 3d3e 0807 94bd
00000300: 3533 b63d 61a1 143d 548e 40bd 73cb 29bd
00000310: 1d38 cdbd b8de 60bd 593c 273e 456d 83bd
00000320: 848b f4bb 2ca2 bcbd 5c22 933d 1b5b 74bc
00000330: a0e5 8cbd c6a5 0b3d 3e26 91bd 15fc 033b
00000340: c06d 8abd 1c8e 39bd 1de3 5abd 7700 e0bb
00000350: 84cf 8d3d 5dc0 393d 10d5 1e3d 3639 23bc
00000360: 10d3 063e ead9 dbbd aa39 453e 447c 22be
00000370: 1512 193d 081c 243e 78a1 1f3d a34c 89bd
00000380: a463 f63c 656d 25be 17ad 54bd 339a 0abe
00000390: 2de2 853d bf2d b23d cef8 603c cabd 68bc
000003a0: 4387 f13c 4956 e73d 3dc3 0dbe daa8 4b3c
000003b0: 5081 5cbe c551 473d bcf0 1e3e da40 eebd
000003c0: e6ca 153e 37bc 02be e481 92bd 0984 943c
000003d0: 212c 113e eb9b 0d3c 96ec bc3d 0703 9c3d
000003e0: de5d e9bc a4f6 adbd 40d0 053e 365e 0a3e
000003f0: 79f0 0d3e f293 9e3d 92a4 f93d fb59 d53d

E.0.weight_u f4 [40]
0.08139654 0.0065335045 -0.23285301 0.03375137 0.25189367 -0.23799141 -0.020708999 0.22395895
-0.018780034 -0.061096262 -0.115430914 0.3617198 0.16844742 -0.06765998 0.10618586 -0.12380233
-0.19149493 -0.192271 -0.1031735 0.01003224 -0.047944248 0.18458451 -0.03451787 -0.08639894
0.02013535 -0.24105017 0.13196245 0.3363302 0.36108005 0.025387652 -0.0737686 0.02270747
-0.1242459 0.048853297 0.03005358 0.06749402 0.1489433 -0.18054213 -0.13374291 -0.0900376
00000000: 3bb3 a63d 0217 d63b 0571 6ebe e03e 0a3d
00000010: 35f8 803e 05b4 73be eba5 a9bc 7f55 653e
00000020: 96d8 99bc 1340 7abd 0b67 ecbd 5633 b93e
00000030: 7b7d 2c3e 5191 8abd f977 d93d 138c fdbd
00000040: 3f17 44be b0e2 44be a14c d3bd 445e 243c
00000050: 3061 44bd b903 3d3e 9c62 0dbd edf1 b0bd
00000060: e4f2 a43c dbd5 76be 2a21 073e 7933 ac3e
00000070: 7cdf b83e c4f9 cf3c fe13 97bd 0405 ba3c
00000080: a274 febd 651a 483d ed32 f63c 4e3a 8a3d
00000090: 9884 183e 09e0 38be e7f3 08be a265 b8bd

E.0.weight_v f4 [27]
0.40760565 0.20161763 0.31618112 -0.1765761 0.08853107 0.2583731 -0.15926512 0.022973748
0.11159296 0.05449368 -0.027716184 0.23420915 -0.38092 -0.046749458 0.05568819 -0.18242845
-0.046318218 -0.04192328 -0.09252137 -0.07566985 0.21350661 -0.39676496 -0.1735109 0.15839349
-0.14828658 -0.092080824 -0.0005726816
00000000: b0b1 d03e da74 4e3e 7ee2 a13e 5dd0 34be
00000010: c74f b53d 7b49 843e 6516 23be 7133 bc3c
00000020: da8a e43d c434 5f3d 0d0d e3bc 86d4 6f3e
00000030: f207 c3be 5c7c 3fbd 4d19 643d 86ce 3abe
00000040: 2cb8 3dbd bfb7 2bbd d87b bdbd cbf8 9abd
00000050: 7aa1 5a3e c724 cbbe d7ac 31be e731 223e
00000060: 70d8 17be df94 bcbd 0320 16ba

E.2.bias f4 [40]
-0.050500754 -0.05299243 -0.030242858 -0.03029218 0.1175321 0.04536133 0.16914245 -0.004091176
0.069572344 -0.10518763 0.05801095 0.09823562 0.013120399 -0.018589325 0.10103232 0.020764507
0.105061084 -0.039936673 -0.019099917 -0.0037256624 0.009511529 -0.05553554 0.011642869 -0.004483647
-0.0042928224 -0.04279491 -0.0926269 -0.030855224 0.030479368 -0.0072911265 0.17118616 -0.039474595
-0.0521701 -0.027585777 -0.030505918 0.050066106 -0.03863193 -0.02594367 -0.14265686 -0.039073803
00000000: e1d9 4ebd 970e 59bd dfbf f7bc 4e27 f8bc
00000010: abb4 f03d cdcc 393d ae33 2d3e 460f 86bb
00000020: f27b 8e3d 9d6c d7bd e49c 6d3d c22f c93d
00000030: f1f6 563c a448 98bc 08ea ce3d 541a aa3c
00000040: 442a d73d a394 23bd 6e77 9cbc 3e2a 74bb
00000050: 3ed6 1b3c 3c79 63bd bbc1 3e3c 8feb 92bb
00000060: ceaa 8cbb b749 2fbd 2cb3 bdbd 18c4 fcbc
00000070: deaf f93c 67ea eebb 6d4b 2f3e 1db0 21bd
00000080: 51b0 55bd 91fb e1bc 8ce7 f9bc 1e12 4d3d
00000090: 843c 1ebd d287 d4bc a414 12be da0b 20bd

E.2.weight_orig f4 [40, 40, 3, 3]
-0.046911642 0.0038583796 -0.052241635 -0.018328754 0.01566118 -0.015183917 0.0041873134 0.040576
0.07456889 0.0015782282 0.011883084 -0.013178749 -0.004684462 -0.0106217535 0.009194143 -0.0040890207
0.031183157 0.021734526 0.041363385 -0.05226011 -0.03299944 0.027357632 -0.0390699 -0.04622073
0.04730639 0.05758471 0.043336853 -0.057778608 -0.0788122 -0.09587113 -0.018127095 -0.06398928
-0.0815954 -0.06429782 -0.0046001687 -0.029991264 0.058238767 -0.024167016 -0.009184823 0.086387664
0.040330753 0.024361959 0.03261746 0.01038378 -0.018426066 -0.057035234 -0.027705519 -0.04172948
0.010989517 -0.008662666 0.005823542 0.08431559 0.0835205 0.05785398 0.0059194597 -0.02216923
-0.05982307 0.053374987 0.048312914 0.057461265 0.0661913 0.10161651 0.090405844 0.05957951
0.11743055 0.12014828 0.06974447 0.067098536 0.12096694 0.017093481 0.019296356 0.00982612
0.08921898 0.22181602 0.17221078 0.087444685 0.07636973 0.07656001 0.02867016 -0.035359103
-0.006893533 0.00059631286 0.07500738 0.025016107 0.012036287 -0.014304613 -0.026796212 -0.04196173
-0.051248547 -0.012254937 -0.03059361 0.006522986 0.03466454 -0.06906933 -0.013486025 -0.0538301
-0.077537455 -0.08153784 -0.07832301 -0.068942755 0.021999821 0.06326645 -0.07032318 0.009484663
-0.034747075 0.06499928 0.06299369 -0.016814748 0.12429287 0.14935638 0.12287126 0.011484956
0.013884978 0.023497097 -0.13058478 -0.09245792 -0.16236348 -0.050970696 -0.057742324 -0.02806176
0.017519958 0.04471995 0.013954324 0.094305605 0.093207225 0.10815432 0.046186592 0.019505475
0.013179638 -0.058039587 0.010572142 0.07439423 -0.011855548 -0.03841904 0.0019494565 -0.09514787
-0.1298156 -0.09260614 0.0036831899 -0.06092697 -0.024641734 0.18484561 0.13697544 0.124987945
0.045161366 -0.09106233 -0.04322739 0.10606744 0.039289612 0.026036523 0.09323572 0.09474289
0.017210674 -0.17120612 -0.18346709 -0.131396 0.02737766 -0.026971757 -0.0050324867 0.20227109
0.141433 0.065805696 -0.080710664 -0.058040924 -0.023337422 -0.026974004 -0.03487655 -0.030653767
-0.045426942 0.029928705 0.02382599 0.0138551155 0.07987394 0.074367516 0.1058652 0.06422192
0.0830125 0.079903916 0.061097972 0.025121938 -0.12793915 -0.1614347 -0.10617169 0.038798768
0.07109365 0.0015096116 0.15520559 0.131833 0.058811758 -0.11961211 -0.024728686 0.039769735
-0.039181784 -0.0012926258 -0.043757398 0.047633477 -0.011964762 -0.008331531 -0.048934087 -0.11530332
-0.055091638 -0.020572996 -0.012998644 -0.011043047 -0.008220144 0.032938875 0.04695552 -0.042539872
0.02224899 -0.042298667 0.023464864 -0.0783278 -0.030476326 -0.06609022 -0.04146396 -0.02571752
-0.01802214 -0.030699218 -0.020761926 -0.051642966 -0.09149126 -0.047880895 -0.009871404 -0.04418755
-0.03434288 -0.02177164 -0.01161992 0.009636274 -0.06445332 -0.07152454 0.0008309086 -0.07439113
-0.09880159 -0.078140505 0.04759085 0.06247575 0.0322204 -0.06239537 -0.0020853148 -0.027686365
-0.04340839 -0.057534054 -0.04680337 0.02074086 0.19900222 0.115999624 0.07660091 0.19694065
0.04531288 0.007903274 0.13876945 0.03924101 -0.05934321 -0.023265261 -0.0062397686 -0.029720694
00000000: 6c26 40bd dedc 7c3b 53fb 55bd 2f26 96bc
00000010: e04b 803c f7c5 78bc bb35 893b 0533 263d
00000020: 93b7 983d 8ddc ce3a 44b1 423c aeeb 57bc
00000030: 1e80 99bb dd06 2ebc 08a3 163c 31fd 85bb
00000040: d273 ff3c 9b0c b23c a76c 293d b20e 56bd
00000050: 6c2a 07bd 1d1d e03c c207 20bd f351 3dbd
00000060: 58c4 413d f2dd 6b3d fc81 313d 43a9 6cbd
00000070: 4a68 a1bd 1558 c4bd 467f 94bc d00c 83bd
00000080: 7d1b a7bd 93ae 83bd 03bd 96bb 3db0 f5bc
00000090: c68b 6e3d e8f9 c5bc f17b 16bc 04ec b03d
000000a0: dc31 253d bb92 c73c e399 053d bb20 2a3c
000000b0: 43f2 96bc c79d 69bd aff6 e2bc 88ec 2abd
000000c0: 600d 343c dbed 0dbc 69d3 be3b a7ad ac3d
000000d0: cc0c ab3d 4cf8 6c3d 07f8 c13b 3f9c b5bc
000000e0: 0909 75bd bb9f 5a3d c3e3 453d 815c 6b3d
000000f0: 4e8f 873d 511c d03d b326 b93d a509 743d
00000100: 6e7f f03d 4d10 f63d 30d6 8e3d f56a 893d
00000110: 84bd f73d a107 8c3c 6413 9e3c bcfd 203c
00000120: 71b8 b63d bd23 633e 0658 303e 3316 b33d
00000130: bc67 9c3d 7fcb 9c3d afdd ea3c b5d4 10bd
00000140: 25e3 e1bb e151 1c3a 789d 993d 94ee cc3c
00000150: d933 453c e55d 6abc bb83 dbbc 10e0 2bbd
00000160: ffe9 51bd eec8 48bc 739f fabc c6be d53b
00000170: 68fc 0d3d 3974 8dbd 7df4 5cbc f37c 5cbd
00000180: f5cb 9ebd 50fd a6bd d067 a0bd dc31 8dbd
00000190: f838 b43c d791 813d 9905 90bd 8f65 1b3c
000001a0: f352 0ebd 581e 853d d602 813d 15bf 89bc
000001b0: 438d fe3d e1f0 183e eda3 fb3d 662b 3c3c
000001c0: d27d 633c fc7c c03c 04b8 05be 945a bdbd
000001d0: 9d42 26be a6c6 50bd 3783 6cbd c7e1 e5bc
000001e0: 0486 8f3c 442c 373d ada0 643c 4c23 c13d
000001f0: 6ee3 be3d 0380 dd3d 272e 3d3d f2c9 9f3c
00000200: 69ef 573c ebba 6dbd c736 2d3c 015c 983d
00000210: c63d 42bc 495d 1dbd e884 ff3a e3dc c2bd
00000220: 61ee 04be 4aa8 bdbd ac61 713b 8f8e 79bd
00000230: 76dd c9bc 2b48 3d3e 4a43 0c3e aef9 ff3d
00000240: 20fb 383d e37e babd 340f 31bd e339 d93d
00000250: 25ee 203d 8c4a d53c 5ff2 be3d 8f08 c23d
00000260: 66fd 8c3c a850 2fbe ccde 3bbe ac8c 06be
00000270: 1d47 e03c e0f3 dcbc 8fe7 a4bb 2720 4f3e
00000280: d0d3 103e 23c5 863d a24b a5bd 52bc 6dbd
00000290: 1f2e bfbc 96f8 dcbc b7da 0ebd 9c1d fbbc
000002a0: 9a11 3abd 0b2d f53c b92e c33c 9100 633c
000002b0: f394 a33d ff4d 983d dbcf d83d c886 833d
000002c0: 7502 aa3d aaa4 a33d de41 7a3d 86cc cd3c
000002d0: 7b02 03be 234f 25be 8b70 d9bd 75eb 1e3d
000002e0: 8c99 913d 29de c53a 37ee 1e3e 3bff 063e
000002f0: 99e4 703d 32f7 f4bd d093 cabc 97e5 223d
00000300: 147d 20bd 536d a9ba f53a 33bd 521b 433d
00000310: d907 44bc f980 08bc 1c6f 48bd 2624 ecbd
00000320: c5a7 61bd b388 a8bc 44f8 54bc e5ed 34bc
00000330: c8ad 06bc eaea 063d 6e54 403d 4a3e 2ebd
00000340: 8443 b63c 5e41 2dbd 6339 c03c 536a a0bd
00000350: 7da9 f9bc 4f5a 87bd 1dd6 29bd 8cad d2bc
00000360: 2ba3 93bc ed7c fbbc ea14 aabc 9387 53bd
00000370: c55f bbbd c21e 44bd abbb 21bc 01fe 34bd
00000380: 1fab 0cbd 705a b2bc 7a61 3ebc 76e1 1d3c
00000390: 1a00 84bd 757b 92bd 55d1 593a 605a 98bd
000003a0: 7d58 cabd 2108 a0bd a0ee 423d 92e6 7f3d
000003b0: 8af9 033d 4a92 7fbd c7a9 08bb 84ce e2bc
000003c0: ffcc 31bd d4a8 6bbd e4b4 3fbd bce8 a93c
000003d0: 3dc7 4b3e 3691 ed3d f0e0 9c3d cfaa 493e
000003e0: 009a 393d bc7c 013c 9419 0e3e 2ebb 203d
000003f0: de11 73bd ca96 bebc f976 ccbb d078 f3bc

E.2.weight_u f4 [40]
-0.024434868 -0.010656545 -0.14330412 -0.07548151 -0.07760273 0.018804776 -0.18055288 -0.22619511
-0.033230502 -0.016222464 0.098871745 0.0693165 -0.12323167 -0.051958803 0.23095402 -0.18269539
-0.09852337 0.016999802 -0.07417586 0.4478559 0.081955165 -0.105459526 0.17452256 0.28062072
0.21712458 0.3915054 -0.13692783 -0.018831186 0.10059991 -0.19433607 -0.017048553 0.04303979
-0.114734836 -0.1281638 0.28007802 -0.088373944 0.039375275 0.11576053 -0.11723658 0.07180439
00000000: a22b c8bc ca98 2ebc 51be 12be 0d96 9abd
00000010: 2eee 9ebd 790c 9a3c dbe2 38be b19f 67be
00000020: b51c 08bd f9e4 84bc 457d ca3d cff5 8d3d
00000030: e360 fcbd c1d2 54bd 367f 6c3e 8014 3bbe
00000040: 9fc6 c9bd 2b43 8b3c 83e9 97bd 5e4d e53e
00000050: 1cd8 a73d 2afb d7bd 0bb6 323e 85ad 8f3e
00000060: e855 5e3e 6573 c83e cf36 0cbe dc43 9abc
00000070: 5307 ce3d 0900 47be 68a9 8bbc 7e4a 303d
00000080: 19fa eabd 5f3d 03be 6366 8f3e 66fd b4bd
00000090: f847 213d db13 ed3d bb19 f0bd 2e0e 933d

E.2.weight_v f4 [360]
-0.0056175604 -0.027086861 -0.0117886225 -0.013496764 -0.035254244 -0.014088043 -0.00028139245 0.0025655075
-0.022368597 0.016253129 -0.0020730675 -0.018807739 0.013429173 -0.0228 -0.04570105 -0.0036598663
-0.00231984 0.002304113 -0.0054227784 0.017597893 0.022352628 -0.013522363 -0.0015990017 0.01659337
-0.020787489 -0.03953476 -0.0032708228 0.000103222206 0.0019048563 0.020705584 0.0020229358 -0.0066004056
0.015485382 -0.000774532 0.023511402 0.0070200916 0.03873238 0.07349822 0.03383589 0.121567406
0.08273173 0.059096444 0.13032202 0.12183936 0.038786408 0.04329227 0.088336125 0.051809795
0.033234205 0.069397755 0.08215169 0.006263031 -0.0067157988 0.04041617 0.02251124 -0.017722668
-0.018229475 0.033069305 -0.0004899998 -0.011447171 0.024067467 0.007214196 0.0074109375 -0.02239787
-0.11521575 -0.11643371 -0.022833992 -0.10871983 -0.09639599 -0.025775483 -0.070047274 -0.05515017
0.008912643 -0.0061616884 -0.020930981 -0.0052216463 -0.011613364 -0.010113212 -0.0036431612 -0.016216114
0.0019371778 0.008326764 -0.058829132 -0.095387384 0.01757779 -0.02279899 -0.07093614 0.01921982
-0.016525773 -0.02031148 0.032834623 -0.026424505 -0.038055852 0.03561663 0.0042854236 -0.025847457
0.040823568 0.002944311 -0.0024967485 0.058950823 -0.027542125 -0.09537694 0.13432333 0.089456946
0.022936353 0.13229737 0.10546643 0.03807914 0.012095124 0.0014430083 -0.014710588 0.056004766
0.0063830945 0.004116269 0.072714716 0.009452152 -0.014265806 0.011395402 -0.0017932431 -0.039540585
0.0055890926 -0.023764797 -0.021856902 -0.033117235 -0.020005723 0.019442063 -0.01121291 -0.065348975
-0.063983805 0.03071252 -0.02783769 -0.07090953 0.07707194 0.0709576 -0.04261794 0.023026433
0.0059643867 -0.0009140184 0.005739546 -0.022523472 -0.011201017 -0.024658851 -0.023985123 0.012183307
0.11039554 0.17686096 0.12730984 0.1515407 0.1933062 0.13875885 0.049949616 0.12502873
0.124124415 -0.045296665 -0.031671565 0.00042802579 -0.06104635 -0.08594881 -0.04925081 -0.06263499
-0.04855255 -0.03234944 0.0122381 -0.037183616 -0.069174126 0.028651472 -0.027945729 -0.041287974
0.026698342 -0.023622869 -0.03720848 0.008616412 -0.03718119 -0.048033614 -0.02005483 -0.05782859
-0.03298296 -0.005888744 -0.018831039 -0.013962393 0.08170747 0.07312289 0.059585042 0.05521893
0.0499744 0.058886386 -0.017270438 0.048294615 0.034404162 0.022459786 -0.030951157 -0.015380712
0.110416815 0.09098474 0.025935406 0.09283997 0.03656615 0.04224678 0.05074741 0.069143474
0.026015213 0.07763597 0.018855324 0.023225954 0.064701915 0.045537967 0.016539045 0.03265419
0.02343211 0.017846804 0.03176472 0.019923069 -0.004349486 0.013827532 -0.017608868 -0.0036246313
-0.015103719 -0.040414233 -0.03154985 -0.029585855 -0.086938456 -0.062486764 -0.006721125 -0.02846714
-0.022928867 0.06901912 0.12072108 0.08134452 0.13806252 0.17773472 0.11950195 0.078717574
0.12912351 0.12690437 0.01857573 0.0154082235 0.02728053 -0.0014767542 -0.013530884 0.010724774
0.011076381 -0.014705679 -0.024539389 0.026036896 0.032117058 0.03194718 0.031652976 0.053198215
0.044627097 0.041516468 0.07521994 0.06062974 -0.038048327 -0.023040144 -0.045595054 0.025541084
00000000: 8313 b8bb 44e5 ddbc 1125 41bc 8821 5dbc
00000010: c166 10bd 89d1 66bc db87 93b9 1322 283b
00000020: 593e b7bc 4825 853c 4ddc 07bb b012 9abc
00000030: 0906 5c3c 11c7 babc 0631 3bbd 5eda 6fbb
00000040: 7508 18bb 9a00 173b 90b1 b1bb 7529 903c
00000050: dc1c b73c e78c 5dbc 9895 d1ba d2ee 873c
00000060: 864a aabc 33ef 21bd 4d5b 56bb 0079 d838
00000070: 5fac f93a c29e a93c 3b93 043b 3748 d8bb
00000080: 66b6 7d3c f609 4bba fc9a c03c cc08 e63b
00000090: d8a5 1e3d 3c86 963d 8197 0a3d 55f8 f83d
000000a0: 416f a93d 1d0f 723d 2373 053e ea86 f93d
000000b0: 7fde 1e3d 3c53 313d 92e9 b43d 8236 543d
000000c0: 9720 083d 6920 8e3d 253f a83d 1d3a cd3b
000000d0: 3410 dcbb 6d8b 253d 7e69 b83c 212f 91bc
000000e0: fb55 95bc ae73 073d 5473 00ba ea8c 3bbc
000000f0: 2329 c53c 1065 ec3b 73d7 f23b bd7b b7bc
00000100: 3cf6 ebbd cc74 eebd 5a0e bbbc 81a8 debd
00000110: 436b c5bd 1b27 d3bc f274 8fbd 25e5 61bd
00000120: 5606 123c fde7 c9bb 7377 abbc 581a abbb
00000130: fb45 3ebc e3b1 25bc 1ac2 6ebb a8d7 84bc
00000140: e7e8 fd3a fb6c 083c d1f6 70bd 765a c3bd
00000150: 4cff 8f3c f3c4 babc f846 91bd e272 9d3c
00000160: 0f61 87bc 4364 a6bc 997d 063d 3478 d8bc
00000170: 74e0 1bbd bee2 113d bd6c 8c3b 0cbe d3bc
00000180: 9d36 273d 57f5 403b 7da0 23bb 6b76 713d
00000190: 06a0 e1bc fc54 c3bd 0e8c 093e 3435 b73d
000001a0: 05e5 bb3c f678 073e c9fe d73d dff8 1b3d
000001b0: a12a 463c 5323 bd3a ae04 71bc 4165 653d
000001c0: 4729 d13b c4e1 863b 74eb 943d 33dd 1a3c
000001d0: 21bb 69bc c8b3 3a3c 410b ebba 4ff5 21bd
000001e0: b524 b73b 64ae c2bc 3f0d b3bc f0a5 07bd
000001f0: 0be3 a3bc f644 9f3c 5ab6 37bc afd5 85bd
00000200: f109 83bd d398 fb3c de0b e4bc 0439 91bd
00000210: e5d7 9d3d 3852 913d 2690 2ebd eea1 bc3c
00000220: e770 c33b bd9a 6fba cd12 bc3b 2583 b8bc
00000230: 7884 37bc 5c01 cabc 737c c4bc 7e9c 473c
00000240: 0f17 e23d 0a1b 353e 835d 023e 7c2d 1b3e
00000250: 0ff2 453e cd16 0e3e f897 4c3d 8807 003e
00000260: f134 fe3d ff88 39bd 0bba 01bd a668 e039
00000270: bd0b 7abd ee05 b0bd 38bb 49bd c646 80bd
00000280: 0adf 46bd d980 04bd 5082 483c d94d 18bd
00000290: 2aab 8dbd 7eb6 ea3c 71ee e4bc 941d 29bd
000002a0: 7bb6 da3c bf84 c1bc eb67 18bd da2b 0d3c
000002b0: 4e4b 18bd e5be 44bd 074a a4bc acdd 6cbd
000002c0: 2419 07bd 5df6 c0bb 8d43 9abc 85c2 64bc
000002d0: 3f56 a73d 74c1 953d 720f 743d 3f2d 623d
000002e0: f5b1 4c3d da32 713d bc7a 8dbc 93d0 453d
000002f0: 61eb 0c3d 96fd b73c 488d fdbc 62ff 7bbc
00000300: 3622 e23d 3556 ba3d 7d76 d43c e222 be3d
00000310: 63c6 153d f60a 2d3d 84dc 4f3d 189b 8d3d
00000320: db1d d53c 9cff 9e3d 7b76 9a3c 5b44 be3c
00000330: 7082 843d 0586 3a3d e47c 873c 66c0 053d
00000340: b2f4 bf3c 7633 923c b91b 023d b435 a33c
00000350: 2286 8ebb df8c 623c 7940 90bc 398b 6dbb
00000360: 9775 77bc 6589 25bd 6a3a 01bd 095e f2bc
00000370: ca0c b2bd 1ff2 7fbd e23c dcbb eb33 e9bc
00000380: 52d5 bbbc e559 8d3d 9d3c f73d f597 a63d
00000390: 4360 0d3e 1700 363e 70bd f43d ae36 a13d
000003a0: f438 043e 38f3 013e 212c 983c c672 7c3c
000003b0: 6b7b df3c a68f c1ba a4b0 5dbc f6b6 2f3c
000003c0: b679 353c 17f0 70bc d406 c9bc 544b d53c
000003d0: 2d8d 033d 0cdb 023d 8da6 013d 5fe6 593d
000003e0: e7ca 363d 2c0d 2a3d e90c 9a3d e456 783d
000003f0: 90d8 1bbd afbe bcbc e1c1 3abd 893b d13c

E.4.bias f4 [40]
0.034041055 -0.07791718 0.113876544 -0.14049712 -0.069757245 0.15828605 -0.054894548 -0.022979911
0.0520657 -0.068065755 -0.05843042 -0.0009950163 0.06894268 0.03947754 0.008797343 -0.012708705
0.07945209 0.23310925 0.05823619 0.09044137 0.09735824 -0.036097407 0.051022198 0.059098396
0.037767965 -0.042888362 -0.048857056 0.07882557 -0.029942881 -0.00081201165 0.030349864 -0.016567852
0.053170156 -0.15262564 -0.06592216 -0.10537122 -0.019778406 0.10076493 0.02805664 -0.067571536
00000000: a26e 0b3d 0b93 9fbd 1b38 e93d 7ade 0fbe
00000010: e3dc 8ebd bd15 223e 1bd9 60bd 5e40 bcbc
00000020: d842 553d 0f66 8bbd bc54 6fbd 356b 82ba
00000030: d231 8d3d 33b3 213d bb22 103c 2c38 50bc
00000040: c7b7 a23d 31b4 6e3e 1289 6e3d 5339 b93d
00000050: c263 c73d e0da 13bd a7fc 503d 2911 723d
00000060: 95b2 1a3d b5ab 2fbd 561e 48bd 4d6f a13d
00000070: c64a f5bc 2edd 54ba 47a0 f83c 4eb9 87bc
00000080: f3c8 593d e549 1cbe 3302 87bd decc d7bd
00000090: 5306 a2bc d85d ce3d 0ad7 e53c f262 8abd

E.4.weight_orig f4 [40, 40, 3, 3]
-0.05292145 0.01355851 0.025778111 -0.040570397 -0.08626857 0.046835627 -0.0033086669 -0.006469353
0.0032733826 0.0036245328 -0.119485036 0.0075612725 0.0058568195 0.02622871 -0.0022649136 0.079870395
0.009503884 -0.04587594 -0.021851253 -0.039017074 0.006999991 -0.045258716 0.04026986 -0.032151703
0.05530393 0.0057538846 0.00986805 0.017047387 -0.0001556923 -0.060545802 0.042142503 0.041314397
-0.04508094 0.031369958 -0.018893832 -0.025538618 -0.007494193 0.032937862 -0.05724412 -0.030027172
0.041531857 -0.024019478 0.01038076 0.08803467 0.104084946 0.21367541 0.07422949 -0.04285925
0.16722131 0.19913301 0.048164662 0.07009791 0.0931651 0.054056667 0.055786267 -0.040078625
-0.04166637 -0.01751176 -0.015765777 0.021832295 0.04921441 0.06799949 0.11212858 -0.015492754
0.074167535 0.09832773 0.021688439 0.005083044 -0.009384442 0.12856933 0.07857873 -0.045089465
0.04372375 0.031103792 -0.017844543 0.058696236 0.04035194 0.028656662 0.046675675 0.049244437
0.022979889 0.00088759547 0.0030050506 0.026743961 -0.029715072 -0.05211577 0.041875683 -0.06163687
-0.08211857 0.11477824 0.01881707 0.015542705 0.0052895322 0.023718117 0.03488394 -0.044732403
0.07650626 -0.0042771036 -0.011368221 0.06052001 0.0059449538 0.012049267 0.013558423 0.048801217
0.012208475 0.05187678 -0.014862448 -0.03367282 -0.045155507 -0.061379585 -0.07933396 -0.05272653
0.0012727346 -0.069698356 -0.032143004 -0.08430043 -0.018112626 0.049638823 0.073188394 0.08071414
-0.028594002 0.00777885 0.029752767 0.0055123214 -0.01856655 0.009136036 0.059335727 0.07656279
0.08839069 -0.05304643 0.1085424 0.010413564 0.029829687 0.18515924 0.20253083 0.025740806
0.1266059 -0.090869896 0.011252811 0.073077045 0.0041685854 0.05447703 0.15079439 0.11102635
-0.0572929 -0.012039436 0.010356618 -0.02165407 -0.013412573 -0.047135603 0.018079398 0.008984935
-0.046292942 0.021059081 -0.02130774 -0.05118968 0.06820149 0.036648363 -0.021590745 0.07957961
0.00594386 -0.05172567 0.079617225 0.03471197 0.06967929 -0.024110826 -0.03595753 0.004807732
0.26908845 0.14391586 0.06770385 0.00016920084 -0.09471456 -0.06460456 0.014859233 -0.10905161
0.009129571 0.067537956 0.02058664 -0.015837535 -0.01641956 -0.14676358 -0.03649752 0.05574362
-0.037406188 -0.04038586 -0.068224296 -0.0038993405 0.14929707 0.024770224 0.055035565 0.027558925
0.0034671738 0.018735232 -0.020370467 -0.003646543 0.015218285 -0.020937877 0.09052333 -0.0010774275
-0.04011231 0.019083507 -0.0999104 -0.063750826 -0.08240169 -0.05273615 0.06863531 -0.05806182
-0.113366805 0.022555437 -0.113891356 -0.14242171 -0.06559125 -0.033989362 -0.11397932 -0.037678156
-0.20492856 0.039783314 -0.0096037295 -0.15819563 -0.048769195 -0.04682288 -0.07110519 0.11312978
-0.030779563 0.002585153 -0.029966269 -0.050872862 -0.09248257 -0.10981192 -0.092682555 0.08622144
0.03499941 0.016431075 -0.09382045 0.02140749 -0.014130221 -0.11249082 0.079101354 0.01984955
-0.06398927 0.020057816 -0.0077628316 -0.002328785 0.0006790407 -0.016648358 0.03891479 0.050619286
-0.0006757318 0.088049 0.019569332 0.020930639 -0.015350197 0.064305134 0.069070354 -0.036918808
00000000: 2ac4 58bd 8324 5e3c 9e2c d33c 252d 26bd
00000010: 93ad b0bd b7d6 3f3d 38d6 58bb defc d3bb
00000020: 3f86 563b 9289 6d3b 92b4 f4bd 8dc4 f73b
00000030: 90ea bf3b 97dd d63c f26e 14bb 1793 a33d
00000040: 2eb6 1b3c 69e8 3bbd 6601 b3bc 5ed0 1fbd
00000050: 2e60 e53b 3461 39bd 02f2 243d 81b1 03bd
00000060: 6086 623d 158b bc3b 9aad 213c f6a6 8b3c
00000070: 5541 23b9 e0fe 77bd 9e9d 2c3d 4939 293d
00000080: cba6 38bd c97d 003d 3dc7 9abc 5d36 d1bc
00000090: d991 f5bb dae9 063d cf78 6abd 8bfb f5bc
000000a0: 4f1d 2a3d 7fc4 c4bc 1014 2a3c 854b b43d
000000b0: 7d2a d53d bacd 5a3e a105 983d 2e8d 2fbd
000000c0: 103c 2b3e 86e9 4b3e 4f48 453d 7e8f 8f3d
000000d0: 58cd be3d 866a 5d3d 2480 643d 7c29 24bd
000000e0: 5baa 2abd d374 8fbc 3b27 81bc a4d9 b23c
000000f0: 0d95 493d 5143 8b3d aba3 e53d 52d5 7dbc
00000100: 26e5 973d 0d60 c93d f4ab b13c aa8f a63b
00000110: 34c1 19bc aea7 033e e3ed a03d bbaf 38bd
00000120: ad17 333d 61cd fe3c b82e 92bc 776b 703d
00000130: 1348 253d 60c1 ea3c fe2e 3f3d 89b4 493d
00000140: 5240 bc3c 86ad 683a 62f0 443b 2716 db3c
00000150: 066d f3bc 5877 55bd d685 2b3d f176 7cbd
00000160: c82d a8bd db10 eb3d 4226 9a3c d4a6 7e3c
00000170: d053 ad3b 7f4c c23c 76e2 0e3d 5339 37bd
00000180: 50af 9c3d f226 8cbb c641 3abc d4e3 773d
00000190: e3cd c23b 4a6a 453c 2624 5e3c c9e3 473d
000001a0: 0e06 483c bf7c 543d a081 73bc 83ec 09bd
000001b0: fbf4 38bd 2969 7bbd d879 a2bd c6f7 57bd
000001c0: e3d1 a63a 03be 8ebd 62a8 03bd b4a5 acbd
000001d0: ee60 94bc 1452 4b3d cce3 953d 744d a53d
000001e0: f83d eabc b9e5 fe3b 13bc f33c b4a0 b43b
000001f0: e118 98bc 50af 153c 050a 733d f4cc 9c3d
00000200: 2e06 b53d 3747 59bd 7a4b de3d a79d 2a3c
00000210: 635d f43c 629a 3d3e 3e64 4f3e 62de d23c
00000220: faa4 013e ff19 babd b65d 383c 6ba9 953d
00000230: a198 883b 4e23 5f3d d869 1a3e c861 e33d
00000240: f6ab 6abd 0e41 45bc ceae 293c e063 b1bc
00000250: 69c0 5bbc 4311 41bd 3f1b 943c 8c35 133c
00000260: ab9d 3dbd 1884 ac3c 928d aebc 45ac 51bd
00000270: 39ad 8b3d 981c 163d 13df b0bc a2fa a23d
00000280: b6c4 c23b 4cde 53bd 5b0e a33d 232e 0e3d
00000290: 04b4 8e3d 1184 c5bc 3448 13bd 2e8a 9d3b
000002a0: f6c5 893e ae5e 133e 51a8 8a3d 816b 3139
000002b0: b5f9 c1bd 654f 84bd 2474 733c 7356 dfbd
000002c0: 3294 153c 5751 8a3d 50a5 a83c b8bd 81bc
000002d0: 5082 86bc 3149 16be 6c7e 15bd 6c53 643d
000002e0: 3b37 19bd a56b 25bd 2eb9 8bbd 148c 7fbb
000002f0: 55e1 183e edea ca3c f96c 613d 41c3 e13c
00000300: 8639 633b a17a 993c f7df a6bc d7fa 6ebb
00000310: 1d56 793c e985 abbc 4c64 b93d 7838 8dba
00000320: ce4c 24bd 0455 9c3c d39d ccbd cb8f 82bd
00000330: 38c2 a8bd dc01 58bd ab90 8c3d 3bd2 6dbd
00000340: db2c e8bd 2ec6 b83c df3f e9bd ffd6 11be
00000350: b554 86bd 6e38 0bbd fd6d e9bd 6954 1abd
00000360: cbd8 51be d4f3 223d f658 1dbc 09fe 21be
00000370: 35c2 47bd 59c9 3fbd 999f 91bd 96b0 e73d
00000380: 6c25 fcbc ac6b 293b d27b f5bc 1060 50bd
00000390: 8067 bdbd 12e5 e0bd 5ad0 bdbd de94 b03d
000003a0: 8b5b 0f3d 769a 863c f024 c0bd c35e af3c
000003b0: 7182 67bc 9661 e6bd e4ff a13d 869b a23c
000003c0: ce0c 83bd 4a50 a43c 5a5f febb 879e 18bb
000003d0: a601 323a 2362 88bc 1d65 1f3d 2b56 4f3d
000003e0: 9823 31ba 0953 b43d dd4f a03c bb76 ab3c
000003f0: 657f 7bbc 69b2 833d c274 8d3d 2d38 17bd

E.4.weight_u f4 [40]
0.04239584 0.3429526 0.11109346 0.2551251 -0.010842244 -0.05644315 -0.034433544 0.07983219
-0.19991413 0.0038886496 0.0790871 0.39890552 0.043472346 -0.17592195 -0.15214807 0.023215562
0.054530673 0.072912395 -0.31622243 -0.038059775 0.22548288 -0.22910564 0.1020337 0.1098877
0.12829846 -0.07436515 -0.23159151 -0.17334159 0.039041862 -0.057695627 -0.050672427 0.19151458
0.2116254 -0.03781632 0.13930452 -0.010931678 -0.05698349 0.1970101 -0.067606464 0.18085937
00000000: 43a7 2d3d 7c97 af3e f884 e33d c29f 823e
00000010: aba3 31bc ef30 67bd 300a 0dbd 0f7f a33d
00000020: 4ab6 4cbe b7d8 7e3b 6bf8 a13d 583d cc3e
00000030: 0f10 323d e224 34be b4cc 1bbe 902e be3c
00000040: 8e5b 5f3d 1853 953d e8e7 a1be 91e4 1bbd
00000050: fce4 663e ab9a 6abe 0bf7 d03d cd0c e13d
00000060: ac60 033e c14c 98bd 5326 6dbe 7580 31be
00000070: 5cea 1f3d 4052 6cbd e48d 4fbd 661c 443e
00000080: 54b4 583e 49e5 1abd d8a5 0e3e c81a 33bc
00000090: 8567 69bd 04bd 493e 4275 8abd 3333 393e

E.4.weight_v f4 [360]
-0.09790476 -0.04339558 0.007132955 -0.040459007 -0.024778143 -0.008321556 -0.07480841 -0.040409084
-0.03371355 0.059281904 0.07423201 0.015577966 0.035589017 0.04346833 0.0009302023 0.03918822
0.006802866 -0.023001464 0.011324783 0.0008261898 -0.027611801 0.017002668 4.299676e-05 -0.0092893345
-0.022591874 0.0036784299 0.038228314 0.011643352 0.012234203 0.006355907 0.036012888 0.033488136
0.0057548927 0.011666216 0.023863077 0.018149048 0.06678741 0.075328015 0.038696863 0.049102914
0.08768351 0.0079160705 0.008695115 0.016463177 0.07265543 -0.07937862 -0.11168044 -0.034100227
-0.1065084 -0.06531437 -0.15985732 -0.19910645 -0.112292685 -0.18672532 0.004230428 0.027611434
0.07182646 0.04700913 0.024783345 0.06300319 0.025178956 0.043382026 0.031632848 0.026176753
-0.009181817 0.020616965 -0.071458384 -0.030075107 -0.013173154 -0.10782665 -0.03306061 0.028141454
0.012215325 0.0056975777 -0.050124116 0.019904928 -0.003177868 -0.041366737 0.030380365 -0.02032899
0.014730316 0.05151282 0.07095042 0.08925525 0.014994146 0.048380297 0.10886374 0.04718352
0.07082681 0.08142279 0.001334723 -0.01986789 -0.073718585 0.009790853 -0.024400337 -0.050242253
0.03997671 -0.0030715936 -0.016080905 0.009596349 -0.025155721 -0.015398267 -0.025159769 0.024932522
0.010435253 -0.049306136 0.037366793 0.015714044 0.014377976 0.008630414 -0.026611773 -0.037713647
0.004582223 0.0040160976 -0.030433565 -0.019835351 -0.010128339 0.06280732 0.03140222 0.031119857
0.017033942 0.009306574 0.0032310456 0.03558152 -0.0032027084 0.047386378 0.054371875 0.108022325
0.09797203 0.02909191 0.07863863 0.049526647 0.025595607 0.0067940643 -0.043526787 0.01896001
0.077169396 0.037540104 0.061933167 0.067267515 0.024100328 0.07124996 0.009117562 0.042642504
0.03999731 0.041789055 -0.0023454688 0.049656022 -0.010358627 -0.013059498 -0.005049145 -0.022996616
0.06415859 -0.02302385 -0.0036160154 -0.056662124 0.030605646 0.007981805 -0.0027428446 0.0436663
-0.033877984 -0.023490021 0.09863588 0.071837 0.19613925 0.14152515 0.15112107 0.1513814
0.121133246 0.103798166 0.037694175 -0.082523644 -0.009243518 0.06886543 0.035360266 0.15609467
0.12136487 0.04399362 0.031796593 -0.01813736 -0.109824896 -0.11667071 -0.030736517 -0.09627599
-0.0884236 -0.03491078 -0.07836052 -0.068654574 -0.04550514 0.030555483 0.02634716 0.0036550548
0.0139540825 0.017280256 -0.032469105 0.050139464 0.005997441 -0.032542042 -0.023807809 0.14174943
0.03908921 -0.01799781 0.07265308 0.0045875087 -0.05990503 -0.03868711 -0.16892336 -0.022362059
-0.017588511 0.046975188 -0.03244751 0.0016693384 0.06248034 -0.05487865 -0.0016021277 0.041097928
-0.09474781 -0.067100115 -0.07497914 0.00017548048 0.08649012 0.03773706 0.030253882 -0.011056753
-0.022221752 -0.043631464 -0.051669806 0.025520831 0.055128343 0.07092434 0.12202897 0.022545254
0.0057543386 0.112281695 0.0048935413 0.027478809 0.10616309 -0.019926209 0.045457453 0.056463838
-0.055441797 0.055982064 0.058223158 0.0031866077 -0.024090322 -0.032575082 0.029309269 0.018799003
-0.008199881 0.018968867 0.016235294 0.009982127 0.031422373 0.0452823 0.03685181 0.012925494
00000000: 4a82 c8bd 90bf 31bd 90bb e93b 58b8 25bd
00000010: 88fb cabc 2357 08bc 2735 99bd ff83 25bd
00000020: 3817 0abd 95d1 723d f406 983d ba3a 7f3c
00000030: cac5 113d d90b 323d d2d8 733a d483 203d
00000040: 93ea de3b 916d bcbc 958b 393c a994 583a
00000050: 2532 e2bc 2e49 8b3c 6b57 3438 4b32 18bc
00000060: 9812 b9bc d011 713b 4b95 1c3d c2c3 3e3c
00000070: f771 483c 3645 d03b 4082 133d db2a 093d
00000080: 8a93 bc3b a823 3f3c 807c c33c 50ad 943c
00000090: d6c7 883d 9345 9a3d 9a80 1e3d 2320 493d
000000a0: 6993 b33d 68b2 013c f575 0e3c c9dd 863c
000000b0: 5fcc 943d 4291 a2bd b7b8 e4bd aeac 0bbd
000000c0: 1321 dabd 8ac3 85bd a3b1 23be 90e2 4bbe
000000d0: b5f9 e5bd ec34 3fbe 679f 8a3b 6031 e23c
000000e0: c019 933d a58c 403d 7106 cb3c d107 813d
000000f0: 1944 ce3c 5ab1 313d 7291 013d a170 d63c
00000100: 556f 16bc e9e4 a83c c658 92bd 1260 f6bc
00000110: 36d4 57bc 38d4 dcbd 906a 07bd e888 e63c
00000120: c922 483c bfb2 ba3b f24e 4dbd a90f a33c
00000130: c743 50bb 2b70 29bd 3ee0 f83c fb88 a6bc
00000140: 6c57 713c 1bff 523d 744e 913d 75cb b63d
00000150: 02aa 753c 6b2a 463d f4f3 de3d 8243 413d
00000160: a60d 913d fec0 a63d dff1 ae3a fcc1 a2bc
00000170: c5f9 96bd d069 203c 37e3 c7bc d2ca 4dbd
00000180: 9ebe 233d ca4c 49bb 1abc 83bc 013a 1d3c
00000190: 5f13 cebc 0349 7cbc dc1b cebc 4a3f cc3c
000001a0: a0f8 2a3c 3bf5 49bd ec0d 193d bdba 803c
000001b0: 9a91 6b3c 9466 0d3c ef00 dabc a079 1abd
000001c0: 7926 963b 7899 833b d04f f9bc bf7d a2bc
000001d0: 55f1 25bc 20a1 803d 9d9f 003d 12ef fe3c
000001e0: c48a 8b3c 9a7a 183c f3bf 533b eebd 113d
000001f0: 88e4 51bb 3818 423d 0bb5 5e3d cf3a dd3d
00000200: 8fa5 c83d 2852 ee3c 4a0d a13d 74dc 4a3d
00000210: e1ad d13c bea0 de3b 2549 32bd 0652 9b3c
00000220: fd0a 9e3d a7c3 193d a2ad 7d3d 8dc3 893d
00000230: 0d6e c53c 80eb 913d d461 153c e8a9 2e3d
00000240: 38d4 233d 002b 2b3d 70b6 19bb 1d64 4b3d
00000250: 3bb7 29bc 81f7 55bc 4c73 a5bb 6663 bcbc
00000260: 9465 833d 839c bcbc acfa 6cbb 8b16 68bd
00000270: b1b8 fa3c 1ec6 023c 4cc1 33bb 6fdb 323d
00000280: a4c3 0abd 256e c0bc 9c01 ca3d 471f 933d
00000290: bad8 483e f8eb 103e 7bbf 1a3e ba03 1b3e
000002a0: b514 f83d 2294 d43d 3565 1a3d 2802 a9bd
000002b0: 2072 17bc 5209 8d3d edd5 103d 48d7 1f3e
000002c0: 258e f83d a732 343d 253d 023d cd94 94bc
000002d0: e0eb e0bd 0ef1 eebd 26cb fbbc 592c c5bd
000002e0: 6f17 b5bd 9bfe 0ebd 7b7b a0bd c59a 8cbd
000002f0: 9963 3abd 7e4f fa3c 00d6 d73c a589 6f3b
00000300: aa9f 643c 538f 8d3c 53fe 04bd 0a5f 4d3d
00000310: 2e86 c43b ce4a 05bd 9808 c3bc c326 113e
00000320: 021c 203d 2570 93bc 23cb 943d d052 963b
00000330: fa5e 75bd 6076 1ebd 3ffa 2cbe a330 b7bc
00000340: c815 90bc 0e69 403d aee7 04bd b4cd da3a
00000350: 63eb 7f3d 6fc8 60bd 7cfe d1ba 4d56 283d
00000360: 240b c2bd c96b 89bd aa8e 99bd 2f01 3839
00000370: bb21 b13d 2d92 1a3d fdd6 f73c 6227 35bc
00000380: 640a b6bc e8b6 32bd b8a3 53bd 1011 d13c
00000390: 42ce 613d c840 913d 53ea f93d d3b0 b83c
000003a0: e48e bc3b f2f3 e53d 005a a03b 3d1b e13c
000003b0: 096c d93d 4a3c a3bc 9831 3a3d a046 673d
000003c0: f016 63bd 734d 653d 687b 6e3d 68d6 503b
000003d0: 1159 c5bc 736d 05bd fe19 f03c 5e00 9a3c
000003e0: cb58 06bc 9964 9b3c e1ff 843c 138c 233c
000003f0: bfb4 003d ef79 393d ecf1 163d 74c5 533c

E.6.bias f4 [40]
0.02199958 0.07244313 0.022782216 0.12255625 -0.09074262 -0.015061365 0.1051292 0.0026785566
-0.06279725 0.114852175 0.01652964 0.047553513 -0.0044773812 -0.14752147 0.11682361 0.05325034
-0.060835354 -0.08442515 0.00676821 -0.06911943 -0.012287033 -0.088694446 0.17503904 0.046995733
0.089473315 0.030954754 0.048883688 -0.052601665 0.0131931845 -0.12771407 0.14652252 0.06286055
-0.049154945 0.31128424 0.0095223775 0.092490084 -0.07554795 0.054002114 0.04689323 -0.095387354
00000000: 7738 b43c 105d 943d c5a1 ba3c c5fe fa3d
00000010: 44d7 b9bd f2c3 76bc fa4d d73d b98a 2f3b
00000020: d89b 80bd 9e37 eb3d 2b69 873c 79c7 423d
00000030: ffb6 92bb de0f 17be 3841 ef3d 071d 5a3d
00000040: 7e2e 79bd 18e7 acbd dcc7 dd3b 7d8e 8dbd
00000050: 8d4f 49bc 6fa5 b5bd 6f3d 333e 997e 403d
00000060: c93d b73d d394 fd3c 433a 483d d874 57bd
00000070: 3a28 583c 7ac7 02be 000a 163e 08bd 803d
00000080: b256 49bd a660 9f3e bf03 1c3c 716b bd3d
00000090: e2b8 9abd 5231 5d3d 1e13 403d 725a c3bd

E.6.weight_orig f4 [40, 40, 3, 3]
-0.034936488 -0.11141756 -0.101793766 -0.022835173 -0.018754002 -0.0061534587 0.06608566 0.044586543
0.07040881 0.047803175 0.08791156 0.1055454 0.08576887 0.07584287 0.0965669 0.08602781
0.0834648 0.090416506 0.0037960424 -0.038555127 -0.1129426 0.030502604 0.01556934 -0.031052168
0.0918503 0.024939759 -0.0416398 -0.006672968 0.04150458 0.08242165 -0.017035386 0.04843492
0.0031390977 -0.07435929 -0.04173482 -0.0043257955 -0.023427224 -0.045327384 0.049317945 -0.03089702
-0.048837278 0.0434451 -0.03192894 -0.0009641493 0.057851695 0.08855587 0.10476138 0.10698674
0.09350477 0.12972571 0.07099407 0.11127216 0.08728542 0.077208936 0.0796744 -0.026263773
0.031618144 0.051887978 0.02792002 0.03175898 0.076594405 0.036305238 0.07205454 0.07481418
0.059423547 0.034170974 0.09099491 0.025952475 0.014556403 0.035343096 0.031775646 0.05255555
0.123127125 0.06954109 0.043345246 0.0771197 -0.0070398995 0.011011174 0.027461426 -0.072754994
-0.11880315 0.004262756 0.002598529 0.042006902 0.039411217 0.05378588 0.0103229005 0.057958093
0.025946973 0.013231301 0.14850199 0.12369426 0.087573975 0.12250286 0.10232833 0.06673135
0.07700182 0.12816513 0.1216679 0.0019611085 0.047741394 0.05175057 0.070499636 0.113165036
0.031681333 0.008442956 0.072780125 -0.009024038 0.045602318 -0.025761269 -0.07292219 0.024295442
-0.010553702 -0.058646265 -0.01847226 -0.005686481 -0.033518475 0.0070478446 0.009075378 -0.006967941
0.033661146 0.0031079259 -0.02240993 0.03458818 -0.04180773 -0.032918055 -0.0683559 0.025358073
-0.0209349 -0.0344216 0.07370079 -0.028425684 -0.03264737 0.033599965 -0.026513241 0.013737712
0.05235794 0.05466327 0.06984879 0.08278197 0.05853225 0.038723927 0.066527165 0.087414764
-0.069839016 -0.101513125 -0.10052297 -0.08367829 -0.09251807 -0.06760915 -0.07092339 -0.03539636
-0.002621599 -0.008223539 0.0044617346 -0.020905584 -0.025081221 -0.012227709 -0.0018366907 0.021181503
0.062332306 0.03357721 0.09026059 0.028713007 -0.063570686 0.10350503 0.04156814 -0.1011918
0.06830319 0.073578045 -0.09959696 0.031463172 0.032641478 0.02673936 0.06717782 0.05504975
0.027654715 0.04652513 0.033596084 0.054766387 -0.007065309 -0.032303873 -0.016342398 -0.07471284
-0.10379626 -0.082315125 -0.12197179 -0.12307427 -0.028008372 0.077117495 -0.0010125568 -0.062406026
0.028962513 -0.019304216 -0.10640719 0.060341686 -0.0071978318 -0.070516296 -0.08483058 -0.08665089
-0.045130793 -0.07037281 -0.030347895 -0.019493384 -0.034313325 0.005250378 0.103547916 -0.0699759
-0.07043473 -0.01862405 -0.025831148 0.0122974 -0.032942463 0.049293842 0.010093016 0.06761618
-0.00081605924 -0.0043245675 -0.017372312 -0.023367977 -0.007912815 -0.02429669 -0.024616357 0.04024492
0.0034320196 -0.019692538 -0.03147998 0.06940199 -0.0884909 -0.09337152 0.04581966 -0.003602493
-0.02747634 0.055184178 -0.011606165 -0.11534858 -0.09386904 -0.036382973 -0.08825469 -0.046130583
-0.050105322 -0.07361509 0.030735364 0.13018073 0.043799862 0.040174842 0.12726758 0.049045704
0.03311736 0.0534138 0.004168588 -0.06395656 -0.034211483 -0.037306365 -0.03844378 -0.053722408
00000000: 9019 0fbd e42e e4bd 4079 d0bd d410 bbbc
00000010: fea1 99bc f4a2 c9bb eb57 873d 61a0 363d
00000020: 7f32 903d 43cd 433d fa0a b43d 3028 d83d
00000030: 97a7 af3d 8253 9b3d dec4 c53d 592f b03d
00000040: 98ef aa3d 4a2c b93d 06c7 783b fbeb 1dbd
00000050: 734e e7bd 99e0 f93c 8c16 7f3c 1e61 febc
00000060: 031c bc3d 774e cc3c 7f8e 2abd eaa8 dabb
00000070: b500 2a3d afcc a83d cb8d 8bbc b263 463d
00000080: 52b9 4d3b af49 98bd 21f2 2abd 67bf 8dbb
00000090: 73ea bfbc 35a9 39bd 9d01 4a3d bf1b fdbc
000000a0: 9909 48bd 7df3 313d ecc7 02bd f7be 7cba
000000b0: e6f5 6c3d c85c b53d 228d d63d dd1b db3d
000000c0: 6e7f bf3d d1d6 043e 5765 913d a9e2 e33d
000000d0: b3c2 b23d b81f 9e3d 552c a33d 2027 d7bc
000000e0: 0782 013d 7d88 543d 87b8 e43c b415 023d
000000f0: 87dd 9c3d cdb4 143d 5591 933d 2d38 993d
00000100: 1b66 733d ddf6 0b3d 8a5b ba3d 499a d43c
00000110: fb7d 6e3c ecc3 103d 2e27 023d 7d44 573d
00000120: 132a fc3d 8f6b 8e3d c98a 313d eff0 9d3d
00000130: f5ae e6bb 3668 343c c9f6 e03c 9200 95bd
00000140: 114f f3bd 97ae 8b3b 154c 2a3b 6e0f 2c3d
00000150: a86d 213d 954e 5c3d 6221 293c 7765 6d3d
00000160: bf8e d43c 19c8 583c e810 183e 6b53 fd3d
00000170: fc59 b33d c8e2 fa3d 8491 d13d 72aa 883d
00000180: 21b3 9d3d b83d 033e 052d f93d f185 003b
00000190: 7b8c 433d 68f8 533d 1d62 903d 12c3 e73d
000001a0: 49c4 013d 5354 0a3c bf0d 953d 8fd9 13bc
000001b0: 7fc9 3a3d 4c09 d3bc 3b58 95bd 3c07 c73c
000001c0: 6fe9 2cbc 1137 70bd 2353 97bc a955 babb
000001d0: ab4a 09bd 9bf1 e63b e5b0 143c 5353 e4bb
000001e0: 45e0 093d 58ae 4b3b 0895 b7bc 56ac 0d3d
000001f0: 953e 2bbd 15d5 06bd 2efe 8bbd bcbb cf3c
00000200: ab7f abbc aafd 0cbd 71f0 963d fbdc e8bc
00000210: 40b9 05bd 1ea0 093d 4c32 d9bc 2414 613c
00000220: 4775 563d 98e6 5f3d e20c 8f3d 9889 a93d
00000230: 83bf 6f3d fb9c 1e3d 653f 883d 8306 b33d
00000240: c207 8fbd 1de6 cfbd fdde cdbd 865f abbd
00000250: 1d7a bdbd ab76 8abd 4840 91bd c6fb 10bd
00000260: 22cf 2bbb 06bc 06bc be33 923b 3042 abbc
00000270: 2277 cdbc bb56 48bc 1dbd f0ba d584 ad3c
00000280: 2950 7f3d 4288 093d 8bda b83d 8a37 eb3c
00000290: 5931 82bd 72fa d33d 5b43 2a3d a53d cfbd
000002a0: 8be2 8b3d 16b0 963d 7ef9 cbbd 87df 003d
000002b0: 12b3 053d 810c db3c 8694 893d d97b 613d
000002c0: 248c e23c 2291 3e3d 0c9c 093d b852 603d
000002d0: 1c84 e7bb 1151 04bd 7ee0 85bc 0c03 99bd
000002e0: 2293 d4bd d594 a8bd 59cc f9bd 5d0e fcbd
000002f0: d071 e5bc c7ef 9d3d c5b7 84ba 769d 7fbd
00000300: cb42 ed3c e023 9ebc 03ec d9bd d828 773d
00000310: cadb ebbb d96a 90bd a8bb adbd 0676 b1bd
00000320: 11db 38bd 9f1f 90bd 269c f8bc 97b0 9fbc
00000330: 218c 0cbd 5d0b ac3b ee10 d43d 864f 8fbd
00000340: 1540 90bd 7791 98bc d89b d3bc 097b 493c
00000350: adee 06bd 57e8 493d 2d5d 253c 5a7a 8a3d
00000360: cfec 55ba 1ab5 8dbb 6150 8ebc 336e bfbc
00000370: c0a4 01bc da09 c7bc 3ea8 c9bc dbd7 243d
00000380: bceb 603b 3f52 a1bc 27f1 00bd a122 8e3d
00000390: b83a b5bd 9139 bfbd 65ad 3b3d ce17 6cbb
000003a0: 1016 e1bc ce08 623d c927 3ebc e03b ecbd
000003b0: 693e c0bd 5006 15bd e0be b4bd 6cf3 3cbd
000003c0: 3d3b 4dbd 82c3 96bd bbc8 fb3c 194e 053e
000003d0: 7c67 333d 608e 243d 6f52 023e 26e4 483d
000003e0: 12a6 073d 6ec8 5a3d a798 883b a8fb 82bd
000003f0: 5721 0cbd 8fce 18bd 3a77 1dbd 070c 5cbd

E.6.weight_u f4 [40]
-0.12069637 0.24982466 0.07313343 -0.13377172 0.056646768 0.03256394 -0.2351943 -0.1489648
0.41083303 0.38397598 -0.110059276 0.09796081 0.11449198 -0.3096161 -0.07701581 -0.18898015
-0.047382172 0.124209486 -0.08936122 -0.03376401 -0.03418224 0.118179746 -0.017368104 -0.17848253
-0.040206943 0.035974104 0.18045373 -0.048993368 -0.09528891 -0.1327894 -0.035221893 -0.007533347
0.07683462 -0.37215152 -0.05176221 -0.19276585 -0.009845966 0.0103265075 -0.058614913 0.040009864
00000000: a92f f7bd 09d2 7f3e fbc6 953d 74fb 08be
00000010: 7106 683d c461 053d c6d6 70be 3b8a 18be
00000020: b558 d23e 8098 c43e c266 e1bd ad9f c83d
00000030: c57a ea3d 0086 9ebe 77ba 9dbd 0384 41be
00000040: cf13 42bd 8b61 fe3d 0403 b7bd 214c 0abd
00000050: ad02 0cbd 3908 f23d 8e47 8ebc 20c4 36be
00000060: 09b0 24bd 9559 133d ddc8 383e 45ad 48bd
00000070: d526 c3bd f2f9 07be d544 10bd 4bda f6bb
00000080: 785b 9d3d a58a bebe 9c04 54bd 6964 45be
00000090: f950 21bc 8330 293c 3116 70bd 62e1 233d
